unit_tests_workloads/conv2_1x1_C_512_K_256-1x1_C_256_K_256_workload.onnx (onnx, 786979 bytes, 2 tensors)

conv1.weight f4 [256, 512, 1, 1]
0.018861879 0.00048700682 -0.014067195 -0.012008991 0.0024693154 -0.04213486 -0.028671363 0.037673693
0.027869398 -0.020578863 0.03579554 0.028062642 0.009643078 0.011126314 0.012456596 -0.03172554
-0.036148544 -0.017174382 -0.023886679 -0.004701855 -0.007812566 -0.015839603 -0.029740054 -0.027905159
0.028464142 -0.028109908 -0.027517261 -0.02997349 -0.012120101 -0.042134978 -0.029927123 0.007282775
0.015435951 -0.02889717 -0.027558101 0.007796656 -0.026630623 -0.009408272 0.0071619297 -0.01804589
-0.015993474 0.04369302 -0.014794181 -0.038463276 -0.0354168 0.03235447 0.025343915 -0.030486511
0.010590302 0.017718397 0.035548657 0.035682917 -0.028751595 -0.00052218366 -0.03911399 0.013042184
0.04297216 0.034581076 0.033113927 0.015538827 -0.041217625 -0.022714173 -0.018778944 -0.041993223
0.020895205 -0.0068855514 0.028899942 -0.036351584 -0.028979044 -0.0082563935 0.012203283 -0.043865643
0.029635092 0.04411104 -0.031620577 -0.042266756 -0.01359032 0.014136975 0.027439663 -0.039692648
-0.019924374 -0.007517623 0.029538592 0.03693249 0.02433316 0.020298628 0.039616678 0.016062569
0.025261762 0.035980105 0.035808988 -0.024944844 -0.012466933 0.036045 0.022190142 0.040809207
0.01805876 0.033207793 -0.04220207 -0.010433821 -0.018026097 0.043376915 -0.007722514 -0.0048110522
0.022177324 0.026005533 0.022336464 -0.030917726 0.012092584 -0.031643227 -0.013760598 -0.02161449
-0.038788512 -0.0019147524 0.013729251 -0.025802711 -0.012596002 0.00331908 -0.015576895 -0.0013064996
0.029422266 0.019076606 0.02623224 -0.014772296 0.009117027 -0.012658753 0.035139803 0.019138241
-0.0031808543 0.0077903867 -0.008054557 -0.030740445 0.020472921 0.0364172 0.0023852903 0.0017983428
0.011993249 0.020437608 -0.013059195 0.023388403 0.038126793 0.022845162 0.005698022 0.0064650155
0.025236432 -0.018810613 -0.03787114 0.021475447 -0.036094777 -0.013152841 0.023930343 -0.018389422
0.0049089068 -0.03400956 0.018261613 0.006667136 -0.035988905 0.022714179 -0.010787391 0.018957183
0.01276 -0.022157894 0.010325446 -0.017267227 -0.03271439 -0.018427672 -0.024858922 -0.013025162
0.013372383 0.03433573 0.03920087 -0.011637103 0.016997924 -0.025604969 -0.010125886 -0.014316862
-0.043077335 -0.015503608 0.011279002 -0.03427968 -0.029440437 0.022663262 0.03930047 0.025233312
-0.024069127 -0.042000763 0.03742546 -0.010464583 0.0075336224 0.013360814 -0.0073257806 0.039636813
-0.037406933 -0.04159622 -0.031363856 0.03517305 -0.032154564 -0.019585524 0.023087174 -0.012702691
-0.04286774 0.018083353 -0.0044875173 -0.0008961052 -0.020996226 0.04374651 -0.037196014 -0.04329778
-0.011158352 0.024379143 0.0018069408 0.033762243 -0.0132929105 0.040252876 0.013732033 0.017052846
0.009218295 0.023259882 -0.033055663 -0.022272887 -0.03929386 -0.0075118644 -0.01901069 0.030248871
0.012683778 -0.042244677 0.0050436025 -0.029294487 0.0027450558 -0.01362979 -0.04022543 -5.0518265e-05
-0.014260491 -0.019189397 -0.03531558 0.025190324 0.0037813678 -0.01598749 0.0074821347 0.010237427
0.0009859676 0.020868143 0.013478735 -0.015829844 0.017380318 0.021522615 -0.04308295 0.037676506
0.015821563 -0.0047559664 0.007210936 -0.0040624924 -0.00063521625 -0.01786274 0.015802855 -4.6509045e-05
00000000: 3a84 9a3c f354 ff39 187a 66bc 5cc1 44bc
00000010: 3dd4 213b 9a95 2cbd 35e0 eabc bb4f 1a3d
00000020: 5d4e e43c 0195 a8bc 589e 123d a0e3 e53c
00000030: 00fe 1d3c 254b 363c c016 4c3c a4f2 01bd
00000040: 7f10 14bd 4ab1 8cbc ffad c3bc 0512 9abb
00000050: 4700 00bc 0ec2 81bc 6aa1 f3bc 5c99 e4bc
00000060: a22d e93c c046 e6bc e16b e1bc f78a f5bc
00000070: 6393 46bc ba95 2cbd ba29 f5bc 58a4 ee3b
00000080: 12e7 7c3c c2b9 ecbc 87c1 e1bc 177b ff3b
00000090: 7728 dabc 2725 1abc 9fae ea3b f9d4 93bc
000000a0: bf04 83bc 74f7 323d 4b63 72bc ab8b 1dbd
000000b0: 3511 11bd 1f86 043d 0b9e cf3c d9be f9bc
000000c0: f282 2d3c 2c26 913c 789b 113d 4028 123d
000000d0: 7788 ebbc 27e3 08ba fe35 20bd e2ae 553c
000000e0: 9303 303d e3a4 0d3d 78a2 073d 9096 7e3c
000000f0: d0d3 28bd 1313 babc 4dd6 99bc 1601 2cbd
00000100: 6c2c ab3c 31a0 e1bb 92bf ec3c 66e5 14bd
00000110: 7665 edbc d345 07bc 47f0 473c 76ac 33bd
00000120: 4bc5 f23c c7ad 343d 9484 01bd e81f 2dbd
00000130: efa9 5ebc c59e 673c 25c9 e03c c294 22bd
00000140: 7138 a3bc 6456 f6bb ebfa f13c 8646 173d
00000150: 5656 c73c 4f49 a63c 1945 223d a695 833c
00000160: c1f1 ce3c e05f 133d 72ac 123d 2159 ccbc
00000170: 1b42 4cbc eca3 133d 1ac8 b53c 8e27 273d
00000180: f7ef 933c e504 083d 14dc 2cbd 9ef2 2abc
00000190: 77ab 93bc feab 313d 250d fdbb 08a6 9dbb
000001a0: 38ad b53c 8e09 d53c f6fa b63c 2c47 fdbc
000001b0: f91f 463c 549c 01bd 2274 61bc df10 b1bc
000001c0: b4e0 1ebd 6ef8 faba a7f0 603c 3560 d3bc
000001d0: 765f 4ebc ec84 593b 3c36 7fbc da3e abba
000001e0: f706 f13c 8b46 9c3c ffe4 d63c 8007 72bc
000001f0: 955f 153c a966 4fbc c1ee 0f3d cdc7 9c3c
00000200: e175 50bb 8046 ff3b 43f7 03bc 63d3 fbbc
00000210: d4b6 a73c 342a 153d 8852 1c3b 5fb6 eb3a
00000220: 557f 443c c56c a73c 3cf6 55bc 0999 bf3c
00000230: d72a 1c3d c725 bb3c 79b6 ba3b 7bd8 d33b
00000240: a2bc ce3c b718 9abc c51e 1bbd 47ed af3c
00000250: 1ed8 13bd 037f 57bc 9109 c43c 6aa5 96bc
00000260: e5da a03b 9c4d 0bbd 6199 953c fe77 da3b
00000270: 1a69 13bd 1613 ba3c 99bd 30bc 184c 9b3c
00000280: 520f 513c 7984 b5bc 0f2c 293c 0074 8dbc
00000290: 86ff 05bd a1f5 96bc f0a4 cbbc 7d67 55bc
000002a0: d717 5b3c 9fa3 0c3d 1791 203d 8ca9 3ebc
000002b0: 3b3f 8b3c 83c1 d1bc 0be7 25bc 4691 6abc
000002c0: dc71 30bd d802 7ebc 90cb 383c da68 0cbd
000002d0: 122d f1bc 4ea8 b93c 88f9 203d 17b6 ce3c
000002e0: 9e2c c5bc fe08 2cbd 704b 193d a473 2bbc
000002f0: 9bdc f63b 51e7 5a3c 1a0d f0bb 365a 223d
00000300: 0338 19bd cc60 2abd 6377 00bd 9e11 103d
00000310: 81b4 03bd d271 a0bc 5021 bd3c f31e 50bc
00000320: 1596 2fbd 8a23 943c 060c 93bb 9ae8 6aba
00000330: 4700 acbc 8a2f 333d d95a 18bd 0359 31bd
00000340: 85d1 36bc c5b6 c73c dfd6 ec3a 474a 0a3d
00000350: 82ca 59bc 33e0 243d 52fc 603c 69b2 8b3c
00000360: 5508 173c 828b be3c 6065 07bd a175 b6bc
00000370: 99f2 20bd 1626 f6bb 4ebc 9bbc 7bcc f73c
00000380: 9fcf 4f3c c108 2dbd ce44 a53b fefa efbc
00000390: 65e6 333b 7c4f 5fbc 6cc3 24bd 93e3 53b8
000003a0: d6a4 69bc 1533 9dbc 12a7 10bd f05b ce3c
000003b0: d3d0 773b 32f8 82bc b22c f53b e2ba 273c
000003c0: 953b 813a abf3 aa3c ead5 5c3c 97ad 81bc
000003d0: 2b61 8e3c 3250 b03c bf77 30bd ae52 1a3d
000003e0: 399c 813c f0d7 9bbb b749 ec3b a81e 85bb
000003f0: a484 26ba e254 92bc fd74 813c b512 43b8

conv2.weight f4 [256, 256, 1, 1]
0.03526114 -0.03617435 0.039462067 0.026580103 0.047355592 0.026378088 0.060077816 -0.03797826
0.030793585 -0.03672321 -0.05397491 0.014082879 -0.04532457 -0.038282037 -0.045591086 -0.045875452
-0.009788133 0.010079309 0.017535366 -0.014817856 0.023287356 -0.030294798 0.050320923 -0.012246534
0.010097012 0.0017354414 0.0037478805 -0.041277535 -0.0003548339 -0.04990442 -0.033468805 0.03833636
0.009373382 -0.007285483 -0.046938375 0.017656557 -0.029098079 -0.05943624 -0.021635108 -0.03997927
-0.01841291 0.038453795 0.0003546849 0.01031056 0.02394358 -0.015770778 0.033986494 0.037942655
0.031159416 0.013745084 -0.025833815 -0.04753358 0.057156667 -0.015393972 -0.026272044 -0.056227915
0.0546036 -0.028032452 -0.04900167 0.0512798 0.05091422 -0.03391452 0.03674805 0.017410524
0.033857197 0.045209274 -0.031499684 -0.028694682 0.03797803 0.033858903 0.050570734 0.025637291
0.035238698 -0.011175752 -0.026840962 -0.05715982 0.031605452 0.04733228 -0.04866489 0.03871607
0.04371597 0.041430466 0.0023002177 0.03682366 -0.029007718 0.045328192 0.016371526 0.025367826
-0.020429783 0.0611433 -0.0485659 0.0317669 0.005898744 0.04222197 -0.011605881 0.03309997
0.025612257 -0.05418306 -0.011686839 -0.0400419 -0.003012769 0.011016585 0.044622727 0.018129624
-0.028404832 0.023074098 0.040780373 0.0065767094 -0.025736205 -0.036748774 -0.018750645 0.011085466
-0.02033171 -0.046809666 -0.058687277 0.009159952 0.027791306 -0.01771082 0.03475719 0.05460219
0.03588654 0.02702386 -0.021518044 -0.008017272 0.011140361 -0.052493095 -0.019598141 -0.027607866
-0.018690988 -0.017732412 -0.016621307 -0.038157076 -0.025958136 0.025015548 -0.019622542 0.021419413
0.01987353 0.036502436 0.014150515 -0.057205588 0.035279177 0.010756269 0.043486655 -0.05208163
0.009554729 0.04822831 -0.0015636384 0.000367105 -0.031236373 -0.018273577 0.024915569 0.00979083
-0.012912773 0.03092803 -0.0016891882 -0.061529078 0.014416367 -0.03329938 0.049303338 0.0059289634
-0.009846523 -0.061027005 0.050086617 -0.008963965 0.033025526 -0.025053993 -0.027900465 -0.038667843
-0.044316 0.0071280226 -0.047522567 -0.022828199 -0.029787183 0.05308328 0.024258569 0.010402575
0.05917491 0.048891596 -0.035980664 -0.02966559 -0.0048230886 0.04987768 -0.011107586 0.039892055
0.056328595 0.030666329 0.055695266 0.048116453 -0.018204123 -0.06240639 -0.024402343 0.031114139
-0.016512312 -0.022946917 0.0002598539 -0.02191475 0.04404269 0.015816517 0.01334355 -0.02523312
0.049372613 -0.010039285 0.020982511 0.021095648 -0.027026452 -0.04082229 0.008500338 -0.039437935
0.05912642 0.045978732 0.009128846 0.0465462 -0.029727578 0.021664083 0.051401123 0.028924093
0.015760094 -0.061235823 0.04316601 -0.021370307 -0.007958196 0.009638399 -0.021763436 0.015045427
-0.05597227 0.0075326264 -0.00052490085 0.052001514 -0.044573136 0.051363803 0.051008977 0.049037345
0.020609595 -0.045166448 0.04382121 0.044492252 0.0035032332 0.027596109 -0.015836366 -0.053063095
0.05481261 -0.0104324 -0.01842592 -0.057567395 0.030773856 0.049787454 0.06031567 -0.032009736
-0.043594666 0.017123483 -0.06185507 -0.03070838 0.037930757 -0.012202829 -0.027674712 0.019193627
00000000: fc6d 103d 8e2b 14bd faa2 213d 84be d93c
00000010: f0f7 413d dc16 d83c 2814 763d 188f 1bbd
00000020: d442 fc3c 146b 16bd cc14 5dbd e0bb 663c
00000030: 42a6 39bd a0cd 1cbd b8bd 3abd e6e7 3bbd
00000040: 685e 20bc b023 253c 54a6 8f3c 98c6 72bc
00000050: 20c5 be3c cc2c f8bc 501d 4e3d b0a5 48bc
00000060: f06d 253c c077 e33a 009f 753b a212 29bd
00000070: 0009 bab9 9468 4cbd 9616 09bd 9606 1d3d
00000080: d092 193c 10bb eebb 7442 40bd 7ca4 903c
00000090: 185f eebc 6a73 73bd 1c3c b1bc 4ec1 23bd
000000a0: acd6 96bc ba81 1d3d 00f5 b939 a0ed 283c
000000b0: 5425 c43c b831 81bc 6c35 0b3d c269 1b3d
000000c0: 0842 ff3c 1033 613c 70a1 d3bc 92b2 42bd
000000d0: 1c1d 6a3d 0037 7cbc 7838 d7bc 3e4f 66bd
000000e0: 06a8 5f3d 50a4 e5bc fab5 48bd c40a 523d
000000f0: 6e8b 503d f4e9 0abd 2085 163d 84a0 8e3c
00000100: d8ad 0a3d 5c2d 393d d005 01bd 1c11 ebbc
00000110: da8e 1b3d a2af 0a3d 4223 4f3d 4c05 d23c
00000120: 7456 103d 801a 37bc 94e1 dbbc 6a20 6abd
00000130: b874 013d 7edf 413d d654 47bd be94 1e3d
00000140: 840f 333d feb2 293d 40bf 163b 68d4 163d
00000150: 98a1 edbc 0eaa 393d 941d 863c 30d0 cf3c
00000160: 5c5c a7bc 6671 7a3d 0aed 46bd 021e 023d
00000170: 404a c13b f2f0 2c3d 9826 3ebc d693 073d
00000180: ccd0 d13c 0eef 5dbd 287a 3fbc fa02 24bd
00000190: e071 45bb e87e 343c 52c6 363d 9484 943c
000001a0: 40b1 e8bc e405 bd3c 5209 273d 7081 d73b
000001b0: bcd4 d2bc e285 16bd f49a 99bc d09f 353c
000001c0: b08e a6bc 7ebb 3fbd 1262 70bd a013 163c
000001d0: 98aa e33c 4816 91bc 8e5d 0e3d 8ca6 5f3d
000001e0: c4fd 123d 2461 dd3c 9c46 b0bc e05a 03bc
000001f0: 1086 363c 0003 57bd 488c a0bc e429 e2bc
00000200: d81d 99bc 9043 91bc 6829 88bc 984a 1cbd
00000210: 28a6 d4bc 68ed cc3c 74bf a0bc c477 af3c
00000220: d0cd a23c 9483 153d 90d7 673c 6850 6abd
00000230: e680 103d 103b 303c 101f 323d 8c53 55bd
00000240: 708b 1c3c 0c8b 453d 00f3 ccba 0078 c039
00000250: 6ce3 ffbc 78b2 95bc bc1b cc3c b869 203c
00000260: 1890 53bc c85c fd3c c067 ddba ea05 7cbd
00000270: a032 6c3c ee64 08bd 4cf2 493d c047 c23b
00000280: 5053 21bc 74f7 79bd a027 4d3d 98dd 12bc
00000290: c645 073d 083e cdbc 848f e4bc 2c62 1ebd
000002a0: b284 35bd 3092 e93b 06a7 42bd 3402 bbbc
000002b0: 4004 f4bc da6d 593d e8b9 c63c 906f 2a3c
000002c0: 6461 723d 8e42 483d 7660 13bd 4005 f3bc
000002d0: 000b 9ebb 8a4c 4c3d 98fc 35bc da65 233d
000002e0: d0b8 663d f437 fb3c b820 643d c215 453d
000002f0: d020 95bc d89d 7fbd 6ce7 c7bc 14e3 fe3c
00000300: d444 87bc 2cfb bbbc 003d 8839 9086 b3bc
00000310: 1c66 343d a491 813c e89e 5a3c b0b5 cebc
00000320: f03a 4a3d d07b 24bc 84e3 ab3c c8d0 ac3c
00000330: 9466 ddbc 4635 27bd 0045 0b3c ac89 21bd
00000340: 8c2e 723d 3254 3c3d 2891 153c 3aa7 3e3d
00000350: 4087 f3bc e078 b13c fc89 523d 38f2 ec3c
00000360: 501b 813c 6ad2 7abd d8ce 303d c810 afbc
00000370: 1863 02bc 60ea 1d3c 3c49 b2bc 1881 763c
00000380: 2e43 65bd 40d4 f63b 8099 09ba 8aff 543d
00000390: 5292 36bd da62 523d caee 503d 62db 483d
000003a0: 74d5 a83c 7400 39bd de7d 333d 823d 363d
000003b0: 8096 653b 3c11 e23c 44bb 81bc b058 59bd
000003c0: 3083 603d a8ec 2abc f4f1 96bc cacb 6bbd
000003d0: 7419 fc3c eeed 4b3d 900d 773d a41c 03bd
000003e0: 5290 32bd 8c46 8c3c be5b 7dbd 2490 fbbc
000003f0: 485d 1b3d 60ee 47bc 14b6 e2bc f43b 9d3c
