unit_tests_workloads/conv2_1x1_C_256_K_64-3x3_C_64_K_64_workload.onnx (onnx, 213534 bytes, 2 tensors)

conv1.weight f4 [64, 256, 1, 1]
00000000: e80c 65bc 006b 83bb d007 0b3d e042 77bc
00000010: 50fd e13c 4ce9 7fbd bc42 77bd 5ab6 4f3d
00000020: 0e9d 32bd 1059 5dbd 6e65 153d f07c 033d
00000030: 26fb 08bd 647b 1bbd 0a33 7a3d 601a 24bc
00000040: b432 993c 8005 643c ca46 59bd d01b 8d3c
00000050: 8c93 593d c038 2ebc caff 16bd e070 a03b
00000060: 80dc d4bc 78fb 85bc 5ec8 6cbd e845 6ebd
00000070: 5048 0f3c 101b 48bd 20b6 f6bc b010 e63b
00000080: b095 fc3c 308a 263d 841c ebbc 1c55 d13c
00000090: 8616 4fbd acf6 303d 9cb6 163d 00ef dfba
000000a0: f0b8 26bc f4d2 043d 54fd 273d b82f 953c
000000b0: c8da e1bc fc17 613d 189f 0abd 0cad a03c
000000c0: b28a 07bd 7a7c 363d 6cb2 6bbd 18ba 2cbd
000000d0: 3eac 0ebd 0616 60bd 66ed 34bd a032 e5bc
000000e0: e2e2 2fbd 688b 7abc 9cbf d53c d8f5 19bc
000000f0: f069 7fbc 900b c53b bacd 6f3d 1aae 61bd
00000100: bc1f 7e3d 34d5 e2bc 4045 3f3d ca94 123d
00000110: caaf 28bd 34b1 e23c 72dc 12bd bc4e 083d
00000120: c8c9 6d3c 30bc f7bb d09b b7bb 7e9c 74bd
00000130: 706d ddbc e009 d93b fef3 57bd 60f0 7f3b
00000140: 80f9 45bc 60d5 d5bb 28b1 ac3c de3c 21bd
00000150: 34a9 673d c024 fc3a 48a3 323d 8487 b4bc
00000160: 4870 80bc 4ab1 133d 0a60 06bd e0d6 a6bc
00000170: c01d 763c 1476 f2bc e42f f3bc a630 603d
00000180: f027 e13b 1433 013d c80f 33bc 8068 cc3c
00000190: 1cba a23c 48d9 bcbc 0692 6cbd 685c 4e3d
000001a0: 4092 a8bb 087c 423d a205 6dbd 8016 633d
000001b0: 28ad e9bc f021 da3b f03a b63b a440 0e3d
000001c0: fc60 c0bc f441 7abd 6a00 37bd e612 513d
000001d0: ac02 dcbc 10ab 4e3c 0072 123b acb7 89bc
000001e0: f6aa 3a3d f8c1 0bbc 7430 ffbc b0d8 f2bc
000001f0: 8eb4 70bd d23f 303d d4ba f7bc a461 323d
00000200: d498 5fbd b050 853b 4c94 f3bc 34ce 59bd
00000210: 787b b03c 8892 07bd 6422 65bd dc95 4fbd
00000220: 381b 0cbd 984a 563c 5087 d0bb f074 50bd
00000230: c424 afbc b490 09bd a0fb 3ebd 0867 653d
00000240: 540b c83c 4ed2 263d 1007 95bc 00e6 e4b9
00000250: 9273 32bd 002c d639 2008 53bb 8084 9c3a
00000260: 507b 8bbb dc88 c8bc 7828 61bc 10ee 303d
00000270: 14d1 b83c 6e94 6bbd d839 bfbc 7e5f 09bd
00000280: f0a7 4b3d 4645 6f3d a6df 1ebd c048 073d
00000290: 6078 51bc 7673 34bd 082b 743c b852 553d
000002a0: 22ac 17bd 4cc9 cd3c 3adc 4a3d acdf 393d
000002b0: d456 f6bc b04b ff3b 14f0 5a3d 40f8 03bc
000002c0: 7475 8cbc 36db 753d 7c50 883c f232 6d3d
000002d0: 5c5c 833c 20f6 19bd 5aa7 07bd 0435 debc
000002e0: 001e fdb9 e0b6 233d 2c04 0a3d f40e f1bc
000002f0: 8207 05bd 4c27 d9bc 88dd 213c 12b3 65bd
00000300: 3440 72bd d6a0 3a3d be01 0b3d 807b 293a
00000310: 4470 88bc 56a3 0ebd e6d1 2dbd e422 5b3d
00000320: eaeb 6c3d bcb5 71bd 56d7 7cbd 5ccd 15bd
00000330: 081f 97bc e0ca 703b dc69 4e3d a408 7ebd
00000340: a44c e23c 349b 573d 78cc 2dbd 00d0 dbbc
00000350: 503d 093d 74dc 7ebd 1e30 51bd acea 19bd
00000360: d85a f33c dc5b ba3c b21f 5dbd 98a5 4a3d
00000370: 3e36 743d 4850 de3c cc01 4abd 627d 793d
00000380: e0b8 893c 340d d43c a81b 84bc c0f8 f5bb
00000390: 0460 4ebd 74fa 87bc a07f fb3b b850 6ebd
000003a0: 841a 1f3d 10f2 c83c 8ce8 86bc 00d0 eebb
000003b0: e0e6 7e3b 8886 01bc d47f d8bc 442d 773d
000003c0: fe96 7bbd 60bb 483d b8f7 19bd 00a2 2bbc
000003d0: 5077 b6bc ba09 35bd 0c8c 3c3d 6024 333c
000003e0: 50c9 bf3c d288 183d 9c12 89bc 6208 713d
000003f0: 2ca5 303d 1043 7d3c 02e7 5ebd 342e 9c3c
-0.013980128 -0.004010558 0.033942997 -0.015091628 0.02758661 -0.06247835 -0.060366377 0.050711013
-0.04360681 -0.054040015 0.036473684 0.03210157 -0.03344264 -0.03795947 0.06108383 -0.010016054
0.018700935 0.013917327 -0.053046025 0.017225176 0.053119227 -0.010633647 -0.036865033 0.0048962682
-0.025984049 -0.016355261 -0.057808273 -0.058172137 0.008745268 -0.048853934 -0.03011614 0.0070210323
0.030833095 0.04065913 -0.02870012 0.025553279 -0.05055859 0.043203995 0.036795244 -0.0017084777
-0.0101759285 0.032427743 0.041013077 0.01821123 -0.027570143 0.054954514 -0.03384313 0.019613765
-0.033091255 0.044552304 -0.057543203 -0.04216966 -0.03483223 -0.054708503 -0.044171713 -0.027978241
-0.04294098 -0.015292026 0.026092343 -0.009396993 -0.015589222 0.0060133412 0.058545806 -0.055097677
0.062041983 -0.027689554 0.0466969 0.035786428 -0.04118327 0.027672388 -0.035854764 0.033278212
0.01451344 -0.0075602755 -0.005603291 -0.059719555 -0.027029723 0.0066234916 -0.052722923 0.0039053187
-0.012083411 -0.0065256804 0.021080568 -0.039364688 0.05655785 0.0019237027 0.04361275 -0.022037275
-0.01567854 0.036057748 -0.032806434 -0.020366132 0.015021741 -0.02959732 -0.029685922 0.054733895
0.006871216 0.031542853 -0.0109290555 0.024952173 0.019864134 -0.023052827 -0.057756446 0.050381094
-0.0051443875 0.047481567 -0.0578667 0.05544138 -0.02852495 0.0066568777 0.005561225 0.034729615
-0.023483746 -0.061098054 -0.04467813 0.051043414 -0.026856743 0.012614027 0.0022345781 -0.016811214
0.045573197 -0.0085301325 -0.031151034 -0.02964434 -0.05876594 0.043029614 -0.030240454 0.04355015
-0.054589108 0.0040684566 -0.0297338 -0.053175166 0.02154325 -0.033098727 -0.055941 -0.050680026
-0.034205645 0.013079308 -0.0063637868 -0.05089277 -0.021379836 -0.033585265 -0.046626687 0.05600646
0.024419464 0.040727906 -0.018191844 -0.00043658912 -0.043567248 0.00040850043 -0.0032200888 0.0011941344
-0.0042566434 -0.024479322 -0.013742559 0.043195784 0.022560634 -0.0575146 -0.023343012 -0.033538334
0.049720705 0.058415674 -0.038787507 0.033028364 -0.012785047 -0.044055425 0.014902838 0.05208084
-0.037029393 0.0251204 0.04952643 0.045379326 -0.0300707 0.007791005 0.053451613 -0.008054793
-0.01714585 0.06002351 0.01663994 0.057909913 0.016035251 -0.03758824 -0.033118583 -0.02712489
-0.00048278272 0.039969325 0.033695385 -0.029426076 -0.032477863 -0.026507996 0.009879477 -0.056078978
-0.05914326 0.04556354 0.03393721 0.00064652413 -0.016655095 -0.034823738 -0.042436503 0.05350007
0.057842173 -0.059011206 -0.061728798 -0.0365728 -0.018447414 0.0036742017 0.050393924 -0.06201996
0.027624436 0.052638248 -0.042431325 -0.02683258 0.033505738 -0.06222196 -0.05107128 -0.037577316
0.029706404 0.02274888 -0.053985305 0.04947433 0.059622042 0.02713789 -0.04931812 0.06091059
0.016811788 0.025885202 -0.016126469 -0.00750646 -0.050384536 -0.016598918 0.007675126 -0.05818245
0.038843647 0.024529487 -0.016468309 -0.007287979 0.0038894936 -0.00790561 -0.02642814 0.060345903
-0.061423294 0.04900682 -0.03758976 -0.0104756355 -0.02227369 -0.04419873 0.046031997 0.010933965
0.023411423 0.037239857 -0.016732506 0.058845885 0.04312627 0.0154578835 -0.054419525 0.019065

conv2.weight f4 [64, 64, 3, 3]
00000000: 904b 07bc 1693 0b3c 6300 01bd 10de 9d3c
00000010: 036d b73c bb42 6c3c 8ffa 1e3d 6b3b 503c
00000020: c6da 023c a0b3 69bc 4b95 b0bc 6b2c bcbc
00000030: 008d 42ba d091 b2bc 4eef 09bd c3ef c5bc
00000040: b63c 14bd 00dd 07bc 8090 093b 2be7 d63a
00000050: 5e11 993c b43f 253d 7f7d 0c3d c0ff b0bc
00000060: 3ac7 293d e338 9ebc 1801 e33c 6be8 6bbb
00000070: c6ff 2ebc 304d 19bc 7b0a 1a3d 5be7 15bc
00000080: 808d 8c3c 2861 be3c 7bc0 08bd 0bed f23c
00000090: a896 debc 66ea 48bc 26e8 b03c 00a6 a6ba
000000a0: 4b31 b2bc 23f7 0fbd aba0 71bb 168e ca3c
000000b0: abb2 323a ded2 0cbd fe8e dfbc f695 28bc
000000c0: eb83 5dbc abde 2a39 3e8a 1fbd 920b 0f3d
000000d0: 7337 ccbc abf5 b73c ae31 9d3c 064e 133d
000000e0: 7b0b 393c 78cf 88bc 4631 4dbc c6d1 1f3c
000000f0: 5b1f b8bc 2e64 ed3c b68a a23c f385 023d
00000100: b663 6a3c 8801 003d eb45 ddbc bb8d d2bc
00000110: ff74 143d 468d 1b3c 1b5b 493c c678 97bc
00000120: d6ee ddba 1be3 e7bc 869a 4fbc 403e d23c
00000130: dace 293d eb45 aabc 5b7f 93bc abd0 1ebb
00000140: eb3d a6bc 7b5e b6bc 5b47 7cbc 2bfc bbba
00000150: 7ba3 18bd 4a1f 08bd 8a40 0b3d d052 e3bc
00000160: d6ff 383b 2b99 02bd bbc2 14bd 2e10 c53c
00000170: 6091 1cbd c031 ee3c 53f4 acbc 0695 9cbc
00000180: c056 ffbb 4ee4 a5bc abe3 103d c051 173c
00000190: 8b0a 653c 342e 043d 24e2 273d ebb5 51bb
000001a0: ec37 1e3d def4 1a3d f6cd 00bd b011 4a3c
000001b0: 003c f03a 48b7 81bc 88b0 9dbc 20d4 e23c
000001c0: 5b13 1dbd 36ea 7f3c 1ce9 10bd 806c cdbc
000001d0: d058 3dbc 0ba2 91bb 541b 0cbd 4c2e 0dbd
000001e0: 26eb 87bc 6b9c 0b3d 3ac3 11bd a683 713c
000001f0: ebb4 1dbd 8047 1abc 4681 b53c e61a 5e3c
00000200: 90d3 103c 2ed4 acbc 0ef8 adbc eb9f 173c
00000210: 0b8c df3b 2b5c fbbc 00ec 9539 d0a6 163d
00000220: e0bc cbbb 7bcf cf3c c045 253b 306c 8e3c
00000230: e35c d03c cef8 e6bc fa9f 0dbd 4062 0bbc
00000240: 1e9a 8d3c a642 e3bc 1059 db3c 4390 29bd
00000250: 2b7a 8f3b a3d0 c73c 40d2 cfbb 20ae e6bc
00000260: e3ac 19bd cbb3 183d 0b17 653c c8c2 0e3d
00000270: b897 b53c e0a8 a93b 0071 1a3c ebf1 60bb
00000280: 0034 b0bc 4b01 73bc 9e48 b53c 1636 243c
00000290: 58a5 06bd a837 ebbc 901a 2abc 0258 053d
000002a0: 8b23 bf3c 6bda 1d3c 1b78 61bc caa1 173d
000002b0: 56b2 e4ba ebdd 9ebc 6383 afbc f863 c3bc
000002c0: a40c 04bd b002 023d 5be4 b93c d085 b4bc
000002d0: 0b54 a2bb eb10 d5bc a369 87bc c641 df3c
000002e0: 866b bebc fb8f 3d3c e28a 0abd 9ef8 a4bc
000002f0: fe82 b5bc ef22 173d 00b2 c53c 1688 163b
00000300: 9346 07bd 5066 423c 8655 c8bc b41f 0abd
00000310: 5b7a 413c 6b6e 373b 08b2 093d b6b8 13bc
00000320: 80e4 8cbb d666 20bd 205d b73c a3f8 0a3d
00000330: 888d a03c 3bbf d93c 8b78 f33b ee9c 94bc
00000340: a87d 8ebc 7347 16bd 430e ffbc ab4b 953b
00000350: 182b a73c 3870 a63c b764 003d cb63 b9bc
00000360: 0bad 173d 23da 273d d6a9 8b3c 9a05 133d
00000370: 9a1c 013d b66c 6fbc 00d4 813c 1306 083d
00000380: ebf9 41bc 3040 873c ee76 163d 00c0 9bba
00000390: 14d0 1a3d 8eee bbbc 944e 043d 7895 d33c
000003a0: 8e53 9ebc 3c96 003d 6048 293d 702f 76bc
000003b0: 53b5 04bd 8a24 253d 8b1b b5bc 139f 00bd
000003c0: 5639 1b3b 66e7 d33c 24bb 1fbd 9e94 f9bc
000003d0: b033 9a3c 8074 d13a 5677 e039 ab0e bf39
000003e0: ccd3 1e3d 6307 ebbc 980b b9bc d6a3 863b
000003f0: 5bd5 39bc 78d3 15bd 8bb8 1c3c 7b79 24bc
-0.008257762 0.008518955 -0.03149451 0.019270927 0.022390848 0.014420207 0.03881317 0.012709479
0.00798673 -0.014264017 -0.021555563 -0.022970399 -0.00074215233 -0.021798044 -0.033675484 -0.024162179
-0.03619071 -0.008292437 0.002099067 0.0016395798 0.01868504 0.040343955 0.03429937 -0.021606326
0.041449763 -0.019314235 0.027710482 -0.0035996686 -0.010681098 -0.009356782 0.03760765 -0.009149398
0.017157316 0.023239687 -0.03338669 0.029654047 -0.027171448 -0.012262916 0.021595072 -0.0012714267
-0.02175202 -0.035147797 -0.0036869447 0.024725955 0.0006816785 -0.034380786 -0.027289864 -0.01028966
-0.013520221 0.00016295414 -0.038950197 0.034923144 -0.024928784 0.02245601 0.019188728 0.03596308
0.011294241 -0.016700491 -0.012523955 0.009754604 -0.022475889 0.028978433 0.019841533 0.031866025
0.0143059995 0.03125146 -0.027010879 -0.025702348 0.03624439 0.009494131 0.012289788 -0.018490206
-0.001693214 -0.028306535 -0.012671119 0.025664449 0.041457035 -0.020785293 -0.018005064 -0.0024233263
-0.020293197 -0.022261849 -0.015397872 -0.001434212 -0.037265282 -0.033232965 0.033997096 -0.027749449
0.0028228662 -0.031884354 -0.036318522 0.024055567 -0.038224578 0.029076457 -0.021112597 -0.019114029
-0.007792324 -0.020250466 0.03537337 0.009235799 0.013979564 0.032270625 0.04098715 -0.00319993
0.03862755 0.03783118 -0.03144642 0.012333319 0.0018328428 -0.015834466 -0.019249216 0.02768904
-0.038348537 0.015619805 -0.03537856 -0.02507615 -0.011556819 -0.004444366 -0.03420575 -0.03446798
-0.01659162 0.03408472 -0.035586573 0.01474086 -0.038502615 -0.009416461 0.022156369 0.013556218
0.008839503 -0.021097269 -0.021236446 0.009254436 0.0068221143 -0.030683598 0.00028595328 0.03678018
-0.006217584 0.02536749 0.0025218576 0.017385572 0.025434917 -0.028194811 -0.034576394 -0.008507311
0.017285403 -0.027741741 0.026775867 -0.041397344 0.004378577 0.024391478 -0.0063422024 -0.028159201
-0.037518393 0.03728084 0.013982545 0.034853727 0.022167072 0.005177602 0.009426355 -0.0034323882
-0.02150917 -0.014831851 0.022129353 0.010022661 -0.032872528 -0.028713062 -0.01038231 0.032554634
0.023332378 0.009634594 -0.0137615455 0.03701953 -0.0017448168 -0.019392928 -0.021424955 -0.02385138
-0.032238618 0.031740844 0.022691896 -0.022036463 -0.0049538664 -0.026009044 -0.016529864 0.027253043
-0.02324463 0.011569972 -0.033823855 -0.020138081 -0.022157189 0.03689855 0.024132729 0.0022969297
-0.03302629 0.0118652135 -0.024454843 -0.03372164 0.011808957 0.0027989398 0.03361705 -0.0090162065
-0.0042997003 -0.039160572 0.022383273 0.033928525 0.019598737 0.026580444 0.0074301413 -0.018141236
-0.017393902 -0.036689233 -0.03113473 0.0045561395 0.02040629 0.020317182 0.03134605 -0.022630593
0.03703026 0.040979516 0.017048758 0.035894014 0.031521417 -0.014613321 0.01584816 0.033208918
-0.01183937 0.0165101 0.036734514 -0.0011882782 0.037796095 -0.0229409 0.0323015 0.025828108
-0.019326951 0.031393275 0.041328788 -0.015025958 -0.032399487 0.04031805 -0.02210786 -0.031401705
0.0023685298 0.025867175 -0.03899683 -0.030466374 0.018823475 0.0015980154 0.00042813522 0.00036441287
0.038776204 -0.028690046 -0.022588536 0.0041088862 -0.011342372 -0.036578625 0.009565483 -0.010038729
