unit_tests_workloads/test_4_indep_workload.onnx (onnx, 590988 bytes, 4 tensors)

conv1.weight f4 [64, 64, 3, 3]
00000000: 0036 1fbd e628 27bc bbb4 ea3c c08c 25bb
00000010: 0e8e db3c 5b05 323c 3690 20bc 6ea8 993c
00000020: 50a1 dabc d8e2 bc3c ee01 a1bc 6057 6a3c
00000030: 30fb f53c aba7 1a3d 162a f83b f04e e83c
00000040: e3e4 d1bc db3e b03c 2672 3c3c 36b1 9fbb
00000050: c0ff f33c 60a0 943b d023 1abc 184a e53c
00000060: a0df 07bc f45b 01bd 4004 873b f66a a8bb
00000070: e64d de3c 3cb2 08bd 2b3d 43bc 2028 a63b
00000080: ce18 0ebd eb0a 453c 5b4d cbbc d00a 213c
00000090: 6eff a83c 4b44 683c d04a 2abc 8848 ae3c
000000a0: 1c15 043d 9819 0ebd ab39 6abb 160f 1b3c
000000b0: 7098 5c3c 3839 1ebd 8c6d 103d 66c6 8b3c
000000c0: 600a c2bb e3ab 103d eb50 0cbb 70ac 1d3c
000000d0: 1b92 4d3c d651 713c 8b4e 4cbc bb7c fabc
000000e0: 4867 033d 1626 37bb eeec 8abc ab81 f7ba
000000f0: be7a eabc 96b4 ffbb fb4c b33c 1b79 bb3c
00000100: 622c 02bd 905e 1bbd 5684 b2bb aff7 26bd
00000110: d32d c73c 626c 20bd 5091 d83c 9652 39bc
00000120: ab9a 1dbd d6bc f2bc 3eba 0cbd 26ac 0dbd
00000130: c8c8 b23c ab35 8dba a6c2 1bbd 4b92 803b
00000140: d6b7 063c 5ada 19bd be4c acbc 56a1 dcba
00000150: f62d 8c3b 9c4c 26bd a07e 27bc b390 e23c
00000160: ab0b d9ba ef6e 2a3d cb63 613c 7bbd 883c
00000170: 4839 d6bc 6f5f 21bd 169a 6b3c cb63 fcbb
00000180: e897 b9bc 13fd aebc 70e2 27bd 4024 ddbb
00000190: 2b41 7ebb 56f3 b73b 3665 ef3c c85f 17bd
000001a0: 2bfb f9bc fb76 863c 5f27 063d 13d8 a7bc
000001b0: ab66 903a 46a7 193c 5669 9ebc c02b e4bb
000001c0: 966e 1a3b c081 3f3c 289f a6bc f01f 5a3c
000001d0: 9638 58bb 13ab 003d d0f1 a1bc 7b6e bc3c
000001e0: d029 3dbc e631 c93c 6049 d73b e842 873c
000001f0: 9ed4 9dbc d0df 16bc 5b20 f63c 5635 05bc
00000200: 7025 973c 481f 99bc ebc0 133c 6ec5 ce3c
00000210: 272a 133d 00ac ac3b 64f1 1a3d 8b42 0a3d
00000220: 0b83 95bc ff72 17bd 430e 10bd 38dd c3bc
00000230: 262d 64bc 833a f13c dbde 583c 2b5f 99bc
00000240: 60a6 ebbc a741 22bd 2b9e 0ebd e364 a7bc
00000250: 4ade 1c3d 9ebf 273d a00c e1bb 3e3b d03c
00000260: 00ed 95bb 7467 0dbd b6eb 33bc 462a ad3c
00000270: 9790 203d 7065 d9bc 80a9 dfbb 234a c3bc
00000280: 60e0 f5bc 5667 8239 56b3 dbbb 5b98 fe3c
00000290: 1a39 1ebd 30d3 78bc 80cd a4bc 10e4 013c
000002a0: 66d9 75bc 8e16 f63c 9673 013b 6ba6 0c3b
000002b0: a3ff 1fbd bbeb 60bc 7bfe 9fbc 6b75 bdbb
000002c0: 26bb f53c 3b7f 1d3d ce67 84bc a094 fbbb
000002d0: 94b8 19bd b0c7 b5bc a872 a3bc 760f dd3c
000002e0: b7ae 1f3d 88ec edbc ce9c bd3c 861c 1cbc
000002f0: be14 96bc abeb 1c3d 2cc2 0ebd c23d 1b3d
00000300: 5bc5 f93c ec24 033d f623 743c d6d3 ef3a
00000310: a2dc 1fbd 26ca 0abd 1ed8 83bc 6caa 02bd
00000320: e39f c4bc 56c1 3e3a 0b68 febc abff 3d3a
00000330: 786e e73c 408e 0fbc 564a 45bb 530b a63c
00000340: ab26 0a3c 8e48 11bd a2a7 213d a02a 683c
00000350: 1cab 163d b8f6 803c dc5b 003d de53 293d
00000360: 5010 2c3c 4a9a 23bd 8097 953a eee1 9e3c
00000370: 8b9b b23b 0066 a239 d61a fbbc 6010 c43c
00000380: 6e25 f5bc ff7c 19bd 7e28 e8bc 16b5 903c
00000390: 0b16 d0bc eb5b 543b 68bf 883c 7b22 6dbc
000003a0: cefc 9fbc 0088 8cbc 10d4 003d 26ee c4bc
000003b0: abee f73c a827 bd3c fe35 dc3c 0b9d 16bd
000003c0: 108f 173c e0fb 7d3c 28ab 97bc 4b30 4ebc
000003d0: 2606 c03c c7b5 0dbd 2b25 823b 5ea3 1fbd
000003e0: 287f 153d 8b81 f2bc f3c4 f3bc ab46 903a
000003f0: b80e a03c 3631 7c3c 2322 17bd 407b 9dbb
-0.038869858 -0.010202622 0.028650632 -0.0025260895 0.026801135 0.010865535 -0.009800008 0.018757071
-0.026688248 0.023057386 -0.01965424 0.014303058 0.030027002 0.037757557 0.0075733764 0.028357953
-0.025621837 0.021514347 0.0115018245 -0.00487342 0.029785037 0.0045357198 -0.009407952 0.027989432
-0.008293062 -0.031581834 0.0041203797 -0.005139704 0.027136754 -0.033373103 -0.011916439 0.0050707012
-0.034691624 0.012026529 -0.02481716 0.009829238 0.02062961 0.014176439 -0.010393813 0.02127482
0.032246694 -0.034692377 -0.003573994 0.009464046 0.013464078 -0.038628787 0.035260722 0.017062377
-0.005921647 0.035320174 -0.0021410536 0.009623632 0.012547041 0.014728984 -0.012469898 -0.030577054
0.03208092 -0.0027946285 -0.01695868 -0.0018883249 -0.028622981 -0.00780351 0.021887293 0.022884896
-0.031780608 -0.03793198 -0.0054479046 -0.040763553 0.024313843 -0.039165862 0.026436478 -0.011311194
-0.03847758 -0.02963106 -0.034357302 -0.034588 0.021824256 -0.0010773441 -0.038027428 0.0039236895
0.008222541 -0.037561752 -0.021032687 -0.001683275 0.00427794 -0.040600404 -0.010223061 0.027656889
-0.0016559263 0.0416097 0.013756703 0.016691914 -0.02615036 -0.039397653 0.014379999 -0.007702326
-0.022655442 -0.02136091 -0.040987432 -0.006748706 -0.0038796167 0.0056137247 0.029223066 -0.03695658
-0.030515274 0.016414156 0.03275239 -0.020488774 0.0011016926 0.00937826 -0.019337337 -0.006963223
0.002356445 0.01168865 -0.020339563 0.013313279 -0.0032992712 0.03141315 -0.019768625 0.0230019
-0.011545613 0.024559926 0.0065700263 0.016511396 -0.019266423 -0.0092086345 0.030044725 -0.008130392
0.018450469 -0.018691674 0.009018163 0.025240626 0.03592887 0.0052695274 0.037827864 0.033754867
-0.018250963 -0.036974903 -0.03516985 -0.023909196 -0.01392678 0.029446846 0.013236727 -0.018722137
-0.028765857 -0.039613392 -0.03481881 -0.020433849 0.03829793 0.040954225 -0.00686796 0.025418874
-0.0045753717 -0.03452249 -0.010981491 0.021138322 0.03920039 -0.026537627 -0.006825626 -0.023839062
-0.030014217 0.00024872523 -0.006704728 0.031078508 -0.038628675 -0.01518707 -0.020117521 0.0079279095
-0.015005445 0.030040052 0.0019752732 0.0021461498 -0.039062154 -0.0137280775 -0.019530525 -0.0057818196
0.029996466 0.038451415 -0.01616278 -0.0076776296 -0.037529543 -0.022189945 -0.019952133 0.026984911
0.03898498 -0.029043451 0.02314606 -0.009528285 -0.018320438 0.038310688 -0.034853145 0.037900694
0.030489614 0.032017633 0.014901152 0.0018297385 -0.03902877 -0.03388419 -0.016094264 -0.03190081
-0.024002021 0.0007276734 -0.03105547 0.00072478753 0.028250918 -0.008761942 -0.0030104122 0.020269072
0.008432071 -0.035469584 0.039466508 0.014170319 0.036784276 0.015742645 0.031337604 0.041339748
0.010501936 -0.039942063 0.0011412948 0.019394841 0.005450671 0.00030975044 -0.030652445 0.02393359
-0.029925074 -0.03747272 -0.02833962 0.017664474 -0.025401136 0.003240342 0.016692832 -0.014473553
-0.019529726 -0.017154694 0.03145224 -0.02403934 0.030265173 0.023090199 0.026881214 -0.03677086
0.009250417 0.015501946 -0.01851423 -0.012584756 0.023440432 -0.034597185 0.003971716 -0.03897416
0.03649822 -0.029602787 -0.029756999 0.0011007389 0.019538268 0.015392592 -0.03689779 -0.0048059523

conv2.weight f4 [64, 64, 3, 3]
00000000: fb2e 57bc 4e07 babc 2017 d63b c4c5 1ebd
00000010: b3e4 9e3c 2352 cebc f0c1 283d 06a4 1a3d
00000020: a325 d2bc 409e f53c 4bed e6bb 6beb 01bc
00000030: 1ea0 9cbc 40be 90bb 925d 1f3d a72e 0f3d
00000040: 7828 e93c cab6 28bd e626 043d ab4a 0cba
00000050: 2b87 4f3b ebb3 3abc 0035 04bb 3807 253d
00000060: 7020 f23c 4f29 1abd f62e ec3c 16ac c8bc
00000070: e0a0 3a3c a875 d8bc 60b5 5cbc 5233 1cbd
00000080: fb15 57bc 562c 33ba dea3 ea3c aa36 18bd
00000090: 1258 24bd f646 3cbc c85e d33c d2e0 293d
000000a0: 963d 0c3c 567b a3bb c024 103c db0b 6a3c
000000b0: e000 ba3c 93f6 ccbc ebe7 cebc cb67 4abc
000000c0: 73e0 ac3c b025 a1bc c0c0 bbbb fc1f 27bd
000000d0: 00ca 94bb 3bf3 e6bc 9f20 013d 567b 613c
000000e0: 63b7 1a3d 2b3b 5f3c f662 0dbc 56d2 eabb
000000f0: 8bed 66bc 1357 e8bc 2bb2 2b3b d6a3 16bd
00000100: cb7d fb3b e614 4b3c 2b70 2a3c bbe5 8a3c
00000110: 8f20 12bd f81e 9cbc c0d9 c93b 886c e63c
00000120: 43d9 fc3c 963b 313c db82 47bc ab22 08bd
00000130: 20c8 21bc 806e 82bb 1b34 28bd 5b05 9f3c
00000140: 8860 03bd cbd7 1bbc feed d6bc be12 983c
00000150: b06b c8bc e06f 95bb 3eb2 ebbc 7610 473c
00000160: 64b9 283d 1fe4 0e3d 2b6c 443b 12fc 11bd
00000170: 2ea0 00bd 40cd f23c 233b 0abd c680 203c
00000180: 2b26 c03b 602e 3ebc fc9c 213d 44a1 26bd
00000190: d0c6 33bc d6a4 6f3c 06c4 efbc c387 b83c
000001a0: abd0 393a a39f afbc 5bea 053d 842e 1c3d
000001b0: a0b2 2bbc 4b55 ecbc d6d2 203c dbce e93c
000001c0: ae2c bbbc 6b5a 923b 332d 0c3d eb75 14bb
000001d0: ebda ea3c 1bc1 3fbc db0d bdbc 064a bb3c
000001e0: b65d 4f3c ab5e 4fba 0657 73bc e04b 01bd
000001f0: b0f5 bdbc d824 973c 8fa7 0cbd e0a0 383c
00000200: 56d5 ed37 1644 683c 206d 20bd e07b fc3b
00000210: 6b85 343c b787 2a3d 6b23 7d3b d8fa e63c
00000220: 7bf0 c23c 2e2e ebbc db46 1e3c 0872 923c
00000230: 9ef9 fe3c 80c0 29bc 4875 283d f08d 0c3c
00000240: d3ab b23c b032 c6bc 067a 213d 2624 ee3c
00000250: 5641 c53c 1e19 9a3c e061 dabb 8618 113d
00000260: b33c 213d 80a4 5bbb 7674 c5bc c6c9 033d
00000270: 5014 01bc 8eef 1ebd aed2 0a3d 50ac 61bc
00000280: 7388 babc 3699 9d3b 6899 acbc 1b9c 82bc
00000290: 1b18 f33c 9b20 febc 9206 023d 009c e53b
000002a0: a6d8 13bd 965f 193c 80b6 423b 0ea8 cb3c
000002b0: 5639 b2ba 1b79 26bd 5b6c d53c e661 a8bc
000002c0: 0001 e23a 60e5 16bc 56eb 40ba 9b6b 923c
000002d0: a640 113d 3624 0abc 6be5 79bc e0db 1e3d
000002e0: ab0e 793b 860e 713c 6652 743c 7856 113d
000002f0: 5315 c0bc d69f 6a3c 86e2 643c abc8 9aba
00000300: 4b90 b5bb 4ecd 823c 30d9 b23c 6b0d 9cbb
00000310: 7b26 903c fb87 ac3c c0ee a83c e0a3 0bbc
00000320: db04 a63c 802e 3bbc 669d 1a3d 53b1 d83c
00000330: 96c2 c9bb 2603 523c 24fa 0dbd 4b80 a93c
00000340: 7629 11bd 800a ceba b0d8 76bc 0bed bd3c
00000350: d6ec 843b ee32 1c3d 36db 92bb 920c 273d
00000360: 368f 0b3d 00df d43b a6af c0bc 3be6 6abc
00000370: 6007 bb3b fc9c 123d b8f9 e83c 1c48 0c3d
00000380: e0ae a03c 4e68 de3c 2bcb cebb 73b5 d7bc
00000390: 76f5 38bc fb8d 263d 2b9d 07bc 7e9a b9bc
000003a0: bb06 4e3c 7036 983c a055 44bc 5b41 1fbd
000003b0: 9bbf e2bc 60c2 9f3b 383d 8d3c ccce 0c3d
000003c0: 4f7f 1dbd 402d 92bc 00c7 a83b 600e c33b
000003d0: cb4b 273d c8e1 d43c db9b 323c ebb8 063b
000003e0: 767d 813b 06cc 26bd eb84 1a3b c07b 133b
000003f0: 5c98 04bd 56ed 5ebb 266a 67bc 0be6 693c
-0.01313376 -0.022708561 0.0065335184 -0.038762823 0.019396162 -0.02518565 0.04120058 0.03775408
-0.025652712 0.029982686 -0.0070473305 -0.007929663 -0.019119319 -0.004417211 0.038907595 0.0349566
0.02846168 -0.041189946 0.03226366 -0.00053517026 0.003166626 -0.011395435 -0.0020173192 0.040290087
0.029556483 -0.03763705 0.028830986 -0.02449612 0.011390895 -0.02642329 -0.013470978 -0.03813488
-0.013127799 -0.00068349147 0.028642591 -0.037161507 -0.040123053 -0.011491528 0.025802031 0.04147417
0.008559605 -0.004989068 0.008797824 0.014285053 0.022705495 -0.02501992 -0.025257071 -0.012353848
0.02110312 -0.019671291 -0.0057297647 -0.040801987 -0.004540682 -0.028192153 0.03152525 0.013762316
0.037772547 0.013624947 -0.008629551 -0.0071661873 -0.014094721 -0.028361833 0.0026198726 -0.03677734
0.007674908 0.012395119 0.0104027195 0.016955247 -0.03567558 -0.019057736 0.006159991 0.028127924
0.030865317 0.010817429 -0.0121771945 -0.033236187 -0.009874374 -0.003980458 -0.041065317 0.019411733
-0.03207448 -0.009511898 -0.02623653 0.018563624 -0.024465412 -0.0045604557 -0.028771516 0.012149921
0.041192427 0.034885522 0.00299717 -0.035640784 -0.03140276 0.029638886 -0.033747803 0.009796327
0.005863925 -0.011607736 0.039456353 -0.04068114 -0.010972694 0.014626702 -0.029268276 0.022525674
0.0007088284 -0.021438425 0.032694202 0.0381303 -0.010479599 -0.028849265 0.009815892 0.02854102
-0.022848453 0.004466345 0.034222793 -0.0022653292 0.028668841 -0.011703755 -0.023077896 0.022862446
0.01265662 -0.000791053 -0.014852291 -0.0315665 -0.023188442 0.018450186 -0.034339484 0.011268824
2.8351944e-05 0.014176389 -0.03916657 0.0077051967 0.011018137 0.041633334 0.0038625847 0.028195783
0.02379631 -0.028708544 0.009660448 0.01787664 0.031124886 -0.010360837 0.041127473 0.008578762
0.021810448 -0.024194092 0.03942301 0.029069971 0.024079006 0.018810805 -0.0066644996 0.035423778
0.039364528 -0.0033514798 -0.024103384 0.032174848 -0.007878378 -0.038802676 0.033892326 -0.013773993
-0.022770142 0.004809524 -0.021069244 -0.015943578 0.02967458 -0.031021407 0.031744547 0.007007122
-0.036095284 0.009361168 0.002971083 0.024860408 -0.001359741 -0.04064284 0.026052644 -0.020554494
0.001724273 -0.009209961 -0.00073592865 0.017873576 0.035462044 -0.008431485 -0.015252451 0.038783908
0.0038003128 0.014712935 0.014912223 0.035482854 -0.023447668 0.014320334 0.013970023 -0.0011809071
-0.0055408827 0.015967038 0.021832079 -0.0047623417 0.017596474 0.021060934 0.020621657 -0.008522958
0.020265987 -0.011424661 0.037747763 0.026451742 -0.0061572297 0.012818133 -0.03466238 0.020691058
-0.03543993 -0.0015719682 -0.015066311 0.02318432 0.0040565534 0.038134508 -0.0044816984 0.040783472
0.034072123 0.0064963102 -0.023521256 -0.014337118 0.0057076663 0.035794243 0.028439388 0.034248456
0.019614637 0.027149346 -0.0063108406 -0.026331639 -0.011288991 0.040662747 -0.008277218 -0.022656675
0.012574847 0.018580645 -0.011983305 -0.038880687 -0.027679255 0.004875466 0.017241105 0.034376904
-0.03845149 -0.017843843 0.005150676 0.0059526414 0.040843766 0.025986567 0.010901417 0.0020556997
0.0039517237 -0.040721916 0.002357776 0.002250418 -0.032371864 -0.0034015975 -0.014124429 0.014276038

conv3.weight f4 [64, 64, 3, 3]
00000000: d698 713c 6619 9cbc 2bdf ddba 2b48 7ebc
00000010: db61 ed3c 9af6 173d cb19 203d c0ba 973b
00000020: c097 223b ab9a 423a 5067 4a3c 6640 2cbc
00000030: 00fb be3a d643 b13a 4e93 053d 2343 963c
00000040: ce3d 133d 00ca 47bc c781 293d 60de d03c
00000050: c063 2e3c 7cb2 203d fbed 133d 80d7 36bc
00000060: 33c2 c5bc 287b a7bc e079 b0bb 00f5 6a3a
00000070: 03bd 05bd 0bdc 643c 1055 e8bc 3b95 07bc
00000080: 8ff5 163d a0ce aabc febc 80bc 3849 1bbd
00000090: 13de e23c 560f ea3b d63a 92ba 3c10 163d
000000a0: eb3c d9bb 0ec3 f33c 9636 6d3c d618 c1ba
000000b0: d051 abbc 169e bcbb 93b5 b8bc 5f2c 093d
000000c0: 4088 d5bb eb96 06bc 0b38 353c 2b0a 943a
000000d0: 7e35 e43c 5381 013d b0a2 9e3c c3e5 bfbc
000000e0: 5648 343c 8b76 093d 9e87 80bc b681 a4bb
000000f0: 3089 6c3c 5645 4c3c dcd2 1a3d 66f8 29bd
00000100: 8039 d0bc ebe6 3e3c 5b14 103d be4a efbc
00000110: fb3e 9ebc 04c6 1cbd 4b60 8bbc ebca 11bb
00000120: 28c2 aabc 5058 99bc 1852 b53c 8080 053b
00000130: 3626 d5bc 8052 fbbc 6003 853b fb7e 5ebc
00000140: 3651 ea3c 86f0 04bd 03b4 273d fb38 52bc
00000150: f008 f7bc 5b72 013d 768b 9cbc f342 8d3c
00000160: a4e0 21bd 66ce 3d3c 2e2c 1bbd c014 79bc
00000170: 6b58 9d3b 23ec 853c 16bc cebc d36f 12bd
00000180: 2670 323c a635 e7bc e630 b93c ce95 ddbc
00000190: bef6 bcbc d64e eabc ee76 cfbc 60c4 2bbc
000001a0: f090 0b3c da53 023d 12ce 103d 1698 693b
000001b0: d8ef 1b3d 2baa adbb 00ac 01b9 1e87 1d3d
000001c0: 3c4f 13bd f057 b8bc 8b49 823b 8090 773c
000001d0: 9e76 b53c d314 9fbc d695 65bc 0066 89bc
000001e0: 009e e239 4697 eabc abbc f43b 73f7 15bd
000001f0: 36e3 ed3c 168f d43c ee4f d63c 6385 1abd
00000200: 96c0 233b 90b6 063d f625 d93b 6b93 723b
00000210: abc0 ebbc 1ba6 ea3c 00d6 65bb 3b6b 943c
00000220: 966d 41bc a025 583c 70e1 0e3c 636a 093d
00000230: f4fc 09bd 8664 d93c 002b f8ba b701 133d
00000240: 2712 08bd 705f 453c c855 bebc 845f 01bd
00000250: a6c9 f33c 34cd 0ebd 8c8e 2a3d 07f6 0abd
00000260: 635d 9a3c 5be0 e93c 787b f23c bbe4 693c
00000270: a805 1e3d ea0f 243d da55 093d d6bb b23b
00000280: 4e9b e9bc 76ac c4bc 2836 c9bc 80ce c93b
00000290: d305 a43c b630 0cbd 8f93 08bd cbe5 b83b
000002a0: 8627 53bc 2e4a db3c 501b 993c 961c 26bb
000002b0: 2b2c cbbc fee7 d33c b6cf 42bc 267c dcbc
000002c0: 16d2 143c 20e2 983b d0de c63c 4a66 213d
000002d0: 361c 823c c3db 1b3d 902b e73c 162f 86bc
000002e0: 7b18 62bc 80dc 1b3d 76a9 89bb 2b82 5d3b
000002f0: cecc e1bc f6a0 80bb 2f92 283d a613 4e3c
00000300: 8a32 063d b837 263d 166b 21bc c609 a1bc
00000310: 905d 69bc f67d 153c a8b8 0dbd a078 8a3b
00000320: f85f ae3c 16d9 aa3c 0021 31bb 00b2 0dbd
00000330: ce2d 29bd ced6 85bc f624 febc 2b7e 8ebb
00000340: ab9e 023b ab5e 23bb 669f 81bc f358 eb3c
00000350: 47b6 22bd 8309 04bd d69b 70bc 8e71 d53c
00000360: 561e 81ba 4af0 1d3d 9315 b73c 4e16 a3bc
00000370: 532b 1dbd be6d fe3c 80e3 3a3c 9f04 18bd
00000380: 80ef fd3a 6285 093d 00e7 21ba 867a 98bc
00000390: 4bbe f2bc 168a 353c fe87 a93c b601 d13c
000003a0: 7bb7 ad3c 805a f33b dc24 11bd 285c ebbc
000003b0: 2b82 1a3d ebf8 2e3c 563d 763a be91 a93c
000003c0: 3647 debc c649 1cbc 3b14 e3bc d693 fdba
000003d0: b852 0e3d f08e 2bbc cb0e 95bc c06b 76bc
000003e0: b605 17bc 7672 b33b c0d1 dc3b 1663 d6bb
000003f0: 887c bbbc b089 95bc 8c2b 29bd 9bcb abbc
0.014745912 -0.01905508 -0.0016927471 -0.015520136 0.028977325 0.037100412 0.039087098 0.0046304166
0.0024809688 0.000742356 0.012353733 -0.010513401 0.0014570653 0.0013524245 0.032611184 0.01834256
0.035947613 -0.012194157 0.04138353 0.025496662 0.010643899 0.039232716 0.036115628 -0.011159778
-0.024140453 -0.020444468 -0.0053856224 0.00089628994 -0.03265096 0.013968478 -0.028360873 -0.008275325
0.036855277 -0.02085048 -0.015715118 -0.037911624 0.027693784 0.0071429415 -0.001115645 0.036636576
-0.0066295764 0.029756095 0.014478346 -0.0014732133 -0.020913035 -0.00575615 -0.022547519 0.03348958
-0.0065164864 -0.008214693 0.011060725 0.0011294534 0.027857538 0.031617474 0.019364685 -0.023424989
0.011003574 0.033560317 -0.015689667 -0.0050203456 0.014437005 0.012467703 0.037798747 -0.041496657
-0.025418043 0.011651735 0.035175662 -0.029210445 -0.01931714 -0.03827478 -0.01701369 -0.0022246193
-0.020844534 -0.018718868 0.022133872 0.0020370781 -0.026019197 -0.030678988 0.00405924 -0.013580079
0.028603178 -0.032455944 0.040943157 -0.012830968 -0.030155629 0.0316032 -0.019109469 0.017243838
-0.039520875 0.011584854 -0.03788393 -0.015202701 0.0048018 0.01634795 -0.02523617 -0.035751175
0.010890996 -0.028223824 0.022606324 -0.027048972 -0.023066875 -0.028602045 -0.025325265 -0.010483831
0.0085184425 0.03181825 0.035352774 0.0035643629 0.03807053 -0.0052998266 -0.00012366474 0.038458936
-0.035964236 -0.02250287 0.003976052 0.015110135 0.022151288 -0.01941911 -0.014012774 -0.01677227
0.00043223798 -0.028636586 0.00746878 -0.03661294 0.029039007 0.025947135 0.02616116 -0.037724864
0.0024986616 0.03288895 0.0066268397 0.0037014137 -0.028778395 0.028643658 -0.003507018 0.018117538
-0.0118059125 0.013192564 0.008720741 0.033548724 -0.0336885 0.026537191 -0.0018933713 0.035890307
-0.033220436 0.01204668 -0.023234263 -0.03158523 0.02975924 -0.034863666 0.04163985 -0.033926036
0.018843358 0.028549364 0.02959989 0.014275725 0.038579613 0.04005424 0.03352914 0.0054545207
-0.028516438 -0.024008017 -0.024561957 0.00615865 0.020022308 -0.034226142 -0.033343848 0.005642628
-0.012887841 0.02676877 0.018689781 -0.0025346628 -0.024801334 0.025867458 -0.011890342 -0.026914667
0.0090832915 0.004665628 0.024276167 0.03940419 0.015882593 0.038051378 0.028219014 -0.016379874
-0.013799782 0.038052082 -0.0042011095 0.003379951 -0.027563479 -0.003925438 0.041155037 0.012577927
0.03276304 0.04058048 -0.009852191 -0.01965798 -0.014243498 0.00912427 -0.03459993 0.0042258054
0.021285996 0.020855468 -0.0027027726 -0.034593582 -0.04130345 -0.016337778 -0.031023484 -0.0043485365
0.0019931 -0.0024928253 -0.015823077 0.028728938 -0.039724614 -0.032235634 -0.014685592 0.026055124
-0.000985096 0.038559236 0.022349155 -0.019908097 -0.038371395 0.031058189 0.011406779 -0.037113782
0.0019373745 0.03357447 -0.0006176084 -0.018613111 -0.029631754 0.0110802855 0.020694729 0.025513511
0.021205654 0.00742656 -0.035435542 -0.028730467 0.037721794 0.010679464 0.0009393295 0.020699378
-0.027133565 -0.009539073 -0.027719608 -0.0019346427 0.034746855 -0.010471091 -0.01819553 -0.015040338
-0.00921767 0.0054762913 0.0067388713 -0.0065425737 -0.02288653 -0.018254131 -0.041301295 -0.02097111

conv4.weight f4 [64, 64, 3, 3]
00000000: c04f 43bc 96ec 193b 3b09 fdbc 568e 49bb
00000010: 6b14 b0bc 00e9 86ba f6ef 32bc 131f 88bc
00000020: 37bb 023d 20ff 71bc 0695 753c 36ac 21bc
00000030: 06b3 65bc 0e3f 173d 90db 8c3c 4b93 acbc
00000040: 1e8b ea3c 0394 0dbd 407d 573c 6b64 70bc
00000050: 56ac 623c 53c0 d03c 36d5 e1bb 76a0 8c3c
00000060: 2604 2abc d063 da3c 83e6 d1bc 97a0 0e3d
00000070: 4ed3 d9bc a024 d8bc cb90 003c 48d8 0d3d
00000080: b0b6 3dbc c688 7a3c 20a0 ddbc 2b6f b6bc
00000090: a88d e53c c002 bebb 88f0 003d eb1c dcbc
000000a0: d631 983c 871a 153d 680f c93c c336 22bd
000000b0: 76c1 953c 8e7c 26bd 608c 16bc eb6e a6bb
000000c0: cee5 e23c 80b3 53bb 5877 d2bc 16b6 a7bb
000000d0: f6aa 213d 2798 1a3d 5661 5fb9 7eca ed3c
000000e0: c6ee d3bc 568f 3ebb abfd da3a 060e 26bc
000000f0: 9383 a13c c0b4 143b 4786 0b3d 44a6 01bd
00000100: 4b82 9dbc 8bf8 db3c c3cb d53c b624 29bc
00000110: 184f cbbc 1bdb d0bc 06b7 01bd 76b2 febb
00000120: 1bcb e8bc 9f5d 123d dbe5 053d 0bd6 09bc
00000130: beb8 17bd 6b60 06bb 8718 0abd 4bb6 60bc
00000140: cbc4 65bc 404b 673c 039c 8e3c b87d 293d
00000150: 2874 1bbd a303 e13c 4b6e d03c 60fd 3a3c
00000160: 80c6 fd3b 6b3d b5bc 5088 6b3c 664f 1fbc
00000170: 864b 13bc 00e4 4ab9 0e7e b3bc de76 27bd
00000180: 4886 25bd 400e 563c ac87 1cbd a329 02bd
00000190: 9ba2 05bd 2e5c 2a3d 20cc ddbb 8096 35bc
000001a0: 90c1 f73c 96fb 5dbb 988e c43c fe60 833c
000001b0: 1ba6 1e3c 50af 08bc a67a 2fbc b026 8b3c
000001c0: 96de 533b 60a9 e1bc f306 e33c 164a 4cbc
000001d0: 8bba 8b3b c3d6 28bd b69a bebc eb8d 9ebb
000001e0: ab70 a93b f87b 0fbd 1ed4 a4bc 525d 18bd
000001f0: 06f9 d8bc 1366 f93c d6a1 99ba dbfa 83bc
00000200: 4317 ae3c e0e9 f4bc 36aa c9bb 86f9 1c3c
00000210: 6078 19bd 56b4 e93c eb1d 8fbc b8b4 c4bc
00000220: 9869 f43c dafb 143d 866b 1f3c 930b aabc
00000230: f354 e93c 9b69 46bc e381 813c 4cc1 12bd
00000240: 16ad 893c 3330 82bc fabd 28bd bb79 21bc
00000250: f849 833c d6cc 9dbb c66a 6e3c 56ca e93a
00000260: 76b2 95bc 1b38 2a3d 103e 08bc 984a 2abd
00000270: 60f2 693c 83e4 253d 2b58 e4bb 93a1 bbbc
00000280: 004c 663a f205 09bd 9e46 12bd eb9c d63b
00000290: 883b 20bd 76df 75bc 9cc6 0cbd b601 483c
000002a0: 1626 ef3c a641 3ebc 20db af3c 1351 01bd
000002b0: 66e9 b6bc e426 2abd aef1 cf3c f353 e13c
000002c0: d63e c4bc 7622 1b3d feda c83c 9f83 1d3d
000002d0: 2ba2 c0bb 1018 d1bc 46b9 8bbc b0a0 02bc
000002e0: c0de 143c d666 063d c6b6 5dbc 9748 233d
000002f0: f3b2 d53c dbe3 ccbc 76c9 3f3c f2a3 2a3d
00000300: 00b2 f1b9 d6cc e23b e70f 1fbd 6eb8 a33c
00000310: 37bb 263d d493 19bd ebb0 273d 6398 e8bc
00000320: a6c6 01bd 4b75 873c 6bae 323b f648 f9bc
00000330: 86aa 7b3c 3b92 07bc e645 623c 5640 a93b
00000340: b0db 1abc 3883 fd3c 9b45 ad3c 7618 023d
00000350: 721c 0d3d 4ff1 103d 60a8 f23c 303f 0dbc
00000360: 3c99 243d 6e19 893c 00d0 acba b437 083d
00000370: d604 783b fbab 503c 56ca b9ba 365e e0bc
00000380: 3baa 463c 108a 17bc 90b7 333c af82 0d3d
00000390: f0a5 5d3c e648 633c 7612 873c 6ba5 95bb
000003a0: 72ea 1dbd 00ec bbba 8b0e fb3b 0093 393b
000003b0: 0bb2 90bc bab2 1d3d eb90 ce3b b6b7 7c3c
000003c0: bebd c0bc 96e9 5fbc dbb9 4b3c 436a 0abd
000003d0: 9b8f b83c 1a94 27bd a029 70bc 2210 1abd
000003e0: 0034 b8ba 00ef 9cbb 0093 d2bb e8a0 a5bc
000003f0: 4f14 043d 9673 943c e4c7 263d c8f0 c53c
-0.011920869 0.0023486963 -0.03088819 -0.0030755005 -0.021494111 -0.0010292828 -0.010921469 -0.01661638
0.031916823 -0.014770299 0.014989143 -0.009867718 -0.014019733 0.036925368 0.01719454 -0.021066329
0.02863079 -0.034564983 0.0131524205 -0.014672379 0.013835033 0.025482332 -0.006891872 0.017166357
-0.010376966 0.026658922 -0.025622612 0.03482112 -0.026590016 -0.026384652 0.007847021 0.03463009
-0.011579201 0.015291398 -0.027053893 -0.022269806 0.028021649 -0.0057986677 0.03147939 -0.026869258
0.018578451 0.03640225 0.02454348 -0.039603006 0.018280726 -0.04064613 -0.009188741 -0.0050791404
0.02769747 -0.0032303035 -0.025691673 -0.005118142 0.03946968 0.03774276 -0.00021303198 0.02902722
-0.025870692 -0.0029077134 0.0016707679 -0.010135179 0.01971606 0.0022690743 0.034063604 -0.031652704
-0.019227168 0.026851913 0.026098138 -0.010323694 -0.024817988 -0.025495103 -0.031668685 -0.007772739
-0.02841716 0.035733815 0.03268991 -0.008412848 -0.03704142 -0.0020504247 -0.033714797 -0.013715337
-0.01402397 0.014117062 0.017408377 0.04137966 -0.037952572 0.027467554 0.025443217 0.011412948
0.0077446103 -0.022124013 0.014375761 -0.00972352 -0.008990174 -0.00019349158 -0.021910693 -0.040884845
-0.040411264 0.013064921 -0.038215324 -0.03177799 -0.032625776 0.041591816 -0.0067687184 -0.011083245
0.030243665 -0.003387188 0.023993775 0.01603746 0.009683157 -0.008342579 -0.010710394 0.016986221
0.0032328716 -0.027546585 0.027713275 -0.012468835 0.004264181 -0.041220438 -0.023267131 -0.0048386953
0.005170902 -0.035030335 -0.020120677 -0.037198372 -0.026485931 0.03044418 -0.0011721205 -0.016110828
0.021251326 -0.029896677 -0.006154324 0.009580975 -0.037468314 0.028528374 -0.01747032 -0.024011955
0.029835507 0.036372997 0.009730225 -0.020757472 0.02848289 -0.012110139 0.015809005 -0.035828874
0.016806167 -0.015892124 -0.0411968 -0.009855683 0.016026482 -0.004815678 0.014551824 0.001783679
-0.018273573 0.041557413 -0.008315578 -0.041575044 0.014278978 0.04050113 -0.0069685183 -0.022904193
0.00087851286 -0.033452936 -0.035711877 0.006549468 -0.039119273 -0.0150068905 -0.034369096 0.012207439
0.029192965 -0.0116123315 0.021466792 -0.03157146 -0.02232809 -0.041540995 0.025383797 0.02750585
-0.023955744 0.03787466 0.024518486 0.0384556 -0.005878707 -0.02552417 -0.017056119 -0.007972881
0.009086311 0.032812916 -0.013532346 0.03986415 0.026086306 -0.025010994 0.011705747 0.041660257
-0.00046099722 0.006921391 -0.038833525 0.019985404 0.040705886 -0.037494496 0.040940206 -0.028392976
-0.031683587 0.016535422 0.0027264606 -0.030430298 0.01536048 -0.00827461 0.01381061 0.00516514
-0.009451792 0.030946359 0.021151355 0.03176161 0.034450956 0.03538638 0.029621303 -0.008621022
0.0401852 0.016735759 -0.0013184547 0.033256248 0.003784468 0.012736316 -0.0014174681 -0.027388673
0.012125547 -0.009249225 0.010969058 0.034548458 0.013528332 0.013872361 0.016488295 -0.0045668385
-0.038553663 -0.0014337301 0.0076616458 0.0028316379 -0.017663023 0.038500525 0.0063038967 0.0154246595
-0.023527976 -0.013666531 0.012434448 -0.033792745 0.022529414 -0.040912725 -0.014658362 -0.03761304
-0.0014053583 -0.004789233 -0.006426215 -0.020218328 0.03224593 0.018121522 0.040717974 0.024162665
