stream/inputs/aie/one_bottleneck_with_bias.onnx (onnx, 281681 bytes, 6 tensors)

inc.bot_conv1.weight f4 [64, 256, 1, 1]
00000000: d8d1 2e3c 2cb3 34bd 526a 233d d845 80bc
00000010: 3e84 2ebd b6c5 75bd 14f7 833c c6dd 0cbd
00000020: daf7 4f3d 7ece 0ebd d093 283c 74cf f3bc
00000030: 1a8a 78bd 429c 703d bc36 cfbc 240a ff3c
00000040: c62a 70bd 44f7 b23c d07a d9bb 405d 53bb
00000050: c03b 8aba 50dc 79bc e813 103c 46b5 0d3d
00000060: b000 dcbc 0cc8 323d 74c4 55bd c029 2a3c
00000070: 70b1 8b3b 80f6 743a a2d6 6e3d 482f d1bc
00000080: c87a 1a3d 8873 513c 4ca4 4fbd 38a6 0fbc
00000090: 54f9 4abd 125d 033d b414 20bd b01f 92bb
000000a0: c017 1fbd f09c 5ebd 1666 3fbd ccc2 8abc
000000b0: 8099 303b 44b4 b53c 2e6e 573d 60c5 9bbb
000000c0: 00c1 8cb9 7233 1d3d b6d0 4abd cc5b a63c
000000d0: f84f 06bd c4cd eebc a4db 0fbd 3682 51bd
000000e0: 48f5 4b3c f29b 7f3d d2a4 073d 082f b23c
000000f0: 5ae3 6abd 208b 4ebd c25c 683d c06b 4dbc
00000100: bc0b b23c 209d 053d 7cfa 683d f8f9 f7bc
00000110: 0063 37bb 4eec 28bd cef4 533d 30cc d9bb
00000120: e08f 623d 48c1 1cbc e2e6 12bd 9869 423d
00000130: 9e4f 733d f0a3 a93b 70a6 d33b 540d 81bc
00000140: 8060 2bbd b84e 50bc 30c2 743d acfd babc
00000150: 6a36 783d 5cb4 563d eee6 323d c0cc c23c
00000160: 40c5 0fbd c893 88bc 0855 3c3c 8814 183c
00000170: f086 85bb 265a 06bd c8dc 2dbc 58f3 02bd
00000180: c022 c43a 00f8 3d3c f8db 85bc 2ed5 793d
00000190: 5a7d 6d3d 9ea0 22bd 3061 673d b0cf 193c
000001a0: 6875 523d a052 71bd 0050 2cb9 fedf 763d
000001b0: 567d 603d 28d5 e93c 28eb 573d a66a 653d
000001c0: a8b8 b9bc f85b cdbc 4885 db3c 4a03 763d
000001d0: f8fe f83c a876 1bbd 2e7d 68bd c8b2 243c
000001e0: e024 48bc 1c55 85bc e094 a7bc 00f6 a73a
000001f0: d207 4abd e01d f93b f075 743d b0c1 1e3c
00000200: ea68 44bd 7861 1f3d 4e04 2a3d 828b 3abd
00000210: 7461 debc daee 50bd 788f 833c 3c30 233d
00000220: 2244 46bd b853 bc3c fc36 e8bc 1e74 3abd
00000230: bc75 6e3d 4472 91bc 468d 123d 20c1 07bc
00000240: 9c30 193d 20ee c73c e299 51bd 8aa7 083d
00000250: 205b 4abb e2d9 023d e0ef e13b e8c7 2abc
00000260: dea0 013d 9862 aabc c836 133c b035 8e3b
00000270: c831 bb3c ecc5 2cbd e83a 4c3c 44d7 7a3d
00000280: 088e 12bc e8a1 7f3d 3649 4cbd 5a4e 77bd
00000290: a8e8 183d 5444 243d 2093 61bd bcea b6bc
000002a0: 7452 3abd b89e 1ebd 983d 313d c41a ea3c
000002b0: f4c2 843c fc21 bdbc d4f2 3dbd 7ce2 753d
000002c0: b0c6 0bbd a0bb 803b c4dd 7c3d f8b2 793d
000002d0: c042 deba d823 52bd f840 50bc 7e63 263d
000002e0: 747f 2ebd a8da f4bc ea0f 4d3d 9e1e 593d
000002f0: c0e5 d8ba 58a6 4dbc 5826 4a3d c017 f1bb
00000300: f675 28bd 08f3 2f3d 3898 873c 6e4b 2a3d
00000310: ac33 513d 241c f73c a042 0b3b d4a3 f33c
00000320: 386e 2abc 18a0 633d 4601 66bd a82f 573c
00000330: 6ccc d9bc b06a 71bc dc92 e6bc 8082 4c3b
00000340: 98fb 483c 0870 d43c e07c 773b 9492 46bd
00000350: 32aa 20bd 0818 47bc 8cb8 e53c 7c18 9dbc
00000360: b06c 80bb 1427 08bd b041 46bc a037 11bd
00000370: 5ea5 183d 7099 74bd 2221 433d b85f 193c
00000380: 9855 dcbc a80a fdbc 80de 9f3c c8c5 4cbc
00000390: 9c94 723d 20da 8cbb 80fc 43bd 20b2 543d
000003a0: 981d f5bc 8415 383d 64e9 adbc ccab 53bd
000003b0: b639 7c3d 58c9 75bd 24f0 713d 48dd 3fbd
000003c0: d816 4bbd 544d 093d 5cb2 91bc d039 54bd
000003d0: 5423 c2bc 58d1 733c 007e 5fbb ecfd 1fbd
000003e0: a4bc 84bc 40cd 523d c6ad 113d 68a5 3abd
000003f0: 66fe 413d 802b 79bb 3c0e abbc 80d0 413c
0.010670148 -0.044116184 0.039896317 -0.015658304 -0.042606585 -0.060003005 0.016109027 -0.034391187
0.05077348 -0.034864895 0.0102891475 -0.029762007 -0.06067858 0.05874277 -0.025294654 0.031132765
-0.058634542 0.021846421 -0.006636955 -0.0032251626 -0.0010546371 -0.0152502805 0.0087938085 0.034596704
-0.026855797 0.04364781 -0.052189305 0.010385931 0.0042630956 0.00093445927 0.05831016 -0.02553524
0.03771475 0.012783892 -0.050693795 -0.008767657 -0.049554184 0.03207118 -0.039082244 -0.004459344
-0.03884101 -0.054348886 -0.046728216 -0.01693859 0.0026946962 0.022180684 0.05259531 -0.0047537535
-0.00026846677 0.03837914 -0.04951545 0.020307444 -0.032791108 -0.029150851 -0.035121575 -0.05114957
0.012448616 0.06240458 0.03311617 0.021750942 -0.057345726 -0.05042565 0.056729086 -0.012537897
0.021734111 0.03262055 0.056879506 -0.030270562 -0.0027982593 -0.041240983 0.051747136 -0.0066466555
0.05531299 -0.009567566 -0.03586472 0.047463983 0.0594021 0.0051770136 0.00645905 -0.015753426
-0.041840076 -0.0127140805 0.059755504 -0.022826038 0.06059877 0.052418098 0.043677263 0.023779273
-0.03510022 -0.01667203 0.011494882 0.009282239 -0.0040749237 -0.032800816 -0.01061172 -0.031970352
0.001496397 0.011594772 -0.01634024 0.06099432 0.057980873 -0.039703958 0.05648917 0.009387895
0.0513815 -0.058916688 -0.00016433 0.06027221 0.05480703 0.028544024 0.052714497 0.05600991
-0.022671059 -0.025068268 0.026796952 0.06006173 0.030395016 -0.037954956 -0.056760006 0.01005239
-0.012215823 -0.016275935 -0.020456731 0.0012814403 -0.049323864 0.0076024383 0.059682786 0.009689733
-0.047951616 0.038911313 0.04150801 -0.0455432 -0.027146079 -0.051009037 0.016059622 0.03984092
-0.04840482 0.022989139 -0.028346531 -0.045520894 0.05821775 -0.017754681 0.03577926 -0.008285791
0.037399873 0.024405539 -0.051172145 0.033362903 -0.0030877069 0.03194607 0.0068950504 -0.010423638
0.031647556 -0.020798966 0.008985229 0.004339896 0.022850886 -0.04218094 0.012465216 0.06124045
-0.008944996 0.062410265 -0.049874507 -0.060377456 0.037331253 0.040104225 -0.05507195 -0.022328727
-0.04548879 -0.038725585 0.04327163 0.028577216 0.016206242 -0.023087494 -0.046374157 0.060030445
-0.03412503 0.0039286166 0.06173493 0.060961694 -0.0016957149 -0.051303715 -0.012710802 0.040622227
-0.042602018 -0.02988942 0.050064005 0.053007714 -0.0016547963 -0.0125518665 0.049352974 -0.0073575675
-0.04112812 0.042956382 0.016552076 0.04157584 0.05107467 0.030164786 0.0021249428 0.029741205
-0.010402255 0.0555726 -0.05615356 0.013133921 -0.026586734 -0.014734909 -0.0281462 0.0031205714
0.012267016 0.025932327 0.003776364 -0.04847963 -0.03922481 -0.012151726 0.0280421 -0.019176714
-0.0039192066 -0.033240393 -0.012100622 -0.03545344 0.03726708 -0.059716642 0.04763902 0.0093612
-0.026896283 -0.03088887 0.019515276 -0.012498327 0.059223756 -0.0042984635 -0.047848225 0.051927686
-0.029921338 0.044942394 -0.021229453 -0.05167751 0.061578475 -0.06000647 0.059066907 -0.04684189
-0.049582332 0.03352101 -0.017785244 -0.051812947 -0.023698486 0.014881454 -0.0034102201 -0.03906052
-0.016203232 0.051465273 0.035566114 -0.0455679 0.047361754 -0.0038020313 -0.02088081 0.011829495

inc.bot_conv1.bias f4 [64]
00000000: 78cb c0bc 20cf fb3c 80ed eb3b e0d2 323d
00000010: 2004 6e3b a635 01bd 1ca9 26bd ce44 72bd
00000020: 8043 4aba 4249 01bd b00a 5b3c 80c8 a2bb
00000030: 2e8c 2dbd da20 323d ecb0 0a3d 50e5 3ebd
00000040: e214 5ebd fa37 15bd dcf2 d43c 9ea8 67bd
00000050: 181e 51bd 1cb2 3dbd 38cb 683d 5c61 31bd
00000060: 70e6 cdbc dc1b 0d3d 84bc 803c 403f 0f3b
00000070: e820 f1bc 6a7e 203d b4ed 5cbd 24fe 943c
00000080: dcf2 dbbc f4b1 c53c a096 0ebd a005 25bc
00000090: 3229 423d c24f 33bd 921a 3cbd c054 a43c
000000a0: 4854 ccbc a4b9 303d 28dc 8b3c 7ca9 933c
000000b0: 9ab6 483d a023 a93c 0e76 01bd 6a90 693d
000000c0: 50cb 58bd dcc5 9c3c f0a5 b1bb 8092 a93b
000000d0: 8cf0 babc 4c33 78bd 3052 d83b c02a 413b
000000e0: a491 273d 28cb 6c3c f07c afbb c05c 2c3c
000000f0: 782b 6f3d 50be d4bb 5243 73bd 5872 29bd
-0.023534521 0.030738413 0.007199943 0.043658137 0.0036318377 -0.031545304 -0.04068862 -0.05914765
-0.0007715747 -0.031564005 0.013369247 -0.004967749 -0.042370014 0.04348836 0.033860132 -0.04660541
-0.054219134 -0.036430337 0.02599471 -0.05655729 -0.05105409 -0.046312436 0.05683443 -0.04330574
-0.025134295 0.034450397 0.015714891 0.0021857768 -0.029434636 0.039183058 -0.05393763 0.01818759
-0.026849203 0.024132706 -0.034811616 -0.010072142 0.04740257 -0.043777235 -0.045923777 0.020059943
-0.024942532 0.04314579 0.017072752 0.018025152 0.049002267 0.02064687 -0.031606726 0.05702249
-0.05292827 0.019137315 -0.0054213926 0.005174935 -0.02281978 -0.060595796 0.0066015944 0.0029474944
0.040910378 0.014452733 -0.00535547 0.01052016 0.058391064 -0.0064924136 -0.059390374 -0.041368812

inc.bot_conv2.weight f4 [64, 64, 3, 3]
00000000: 968e cdbb ac41 0dbd 9330 0abd ab68 413b
00000010: 5bf7 24bd 2bf2 423b 1629 c4bc f3f1 113d
00000020: 3bed 26bd 1ba8 8a3c c00e d03c 2853 9e3c
00000030: a6f1 ddbc 0014 213c 9620 223d 189b c33c
00000040: a043 88bb 37d6 263d 7099 1f3d 506e 253d
00000050: acc7 14bd 2000 15bc e693 5ebc a090 083c
00000060: b60d 1dbc e0b5 d63c feff 81bc 08b3 90bc
00000070: 56d3 0dbd 7299 2a3d ae4f 94bc 67d3 0a3d
00000080: b618 28bc 4c43 05bd cb90 b83b 2a09 04bd
00000090: 6315 1bbd 4880 a4bc cbda b9bb 9bab afbc
000000a0: d654 193c ee38 b43c cb57 9fbb 06e8 06bd
000000b0: b754 1dbd fe03 223d ebf7 b93b 53ba b6bc
000000c0: 9b4c ef3c abf7 36bc 169f 11bc 48ad c5bc
000000d0: 2436 0ebd fb76 4dbc bb08 be3c bc51 1bbd
000000e0: 8b05 ddbb 9860 a5bc 9074 0dbd c8c9 cebc
000000f0: c380 a8bc 6e8a d43c e057 91bb c058 7fbb
00000100: 58b1 bfbc 5b3c edbc 7b05 f03c e822 d83c
00000110: 9650 63bb 1bf6 43bc ba72 0cbd 976b 05bd
00000120: e02a d53b 231b e8bc 56af ecbc 00a5 79bb
00000130: fe4e 8d3c b8c7 b3bc 5605 0e3d 9b1f a7bc
00000140: ae63 90bc 70da 61bc 537b 893c de30 1e3d
00000150: dbdd 0c3c 46d6 4cbc 768c 653c 0326 e23c
00000160: b084 0e3c 9bb4 b83c 62e6 0a3d 6090 dabb
00000170: c0f7 29bd fbca 9e3c 862d 793c f6f7 1a3c
00000180: d082 16bd 3b60 13bc 17a5 23bd de9a 1b3d
00000190: db63 19bd e8a5 093d 3ec0 92bc f7cf 143d
000001a0: 0c90 15bd 8093 3e3c a09c e63c 1bed 923c
000001b0: 4b42 23bc ab04 53bb 76b5 143d 9ab7 13bd
000001c0: c6a5 1dbd c65b babc 272e 11bd 5fde 203d
000001d0: a3fc 83bc e8de f5bc f0b5 11bc dba0 acbc
000001e0: 3641 6c3c a741 253d d80a fbbc e68e 123d
000001f0: f651 25bc 3b18 353c 3cc2 263d 36ff d3bb
00000200: e0a6 db3b 40b9 293d 68bc f23c 0058 83ba
00000210: b02b eb3c 8e9c 12bd e022 95bc bec9 19bd
00000220: eb86 003c 9098 93bc 5645 4fbc 8e49 a73c
00000230: 500f cebc 562f fcb9 6369 053d 608e fbbc
00000240: 2074 30bc 8a7b 083d 63a9 f33c 6b6d 0a3b
00000250: 060a bfbc 8033 083b fe6e 893c 2691 c63c
00000260: abac a639 56fc d6bb 4023 0f3d 96f9 6ebc
00000270: 56ae c13c db88 9dbc 483a 273d c66b 0fbc
00000280: 237d 1d3d 806d b8ba 7891 e03c 1bcc 04bd
00000290: bfff 123d 5622 ffba 4e8e fb3c 7625 cebc
000002a0: 33ef c93c 16db 3e3b 6eee 1abd 23b2 8bbc
000002b0: e452 003d eb0b 4bbb 5fdd 25bd 8a1e 263d
000002c0: dec3 25bd 0664 cf3c 6bd6 323c 66a7 3dbc
000002d0: 4e4a 83bc 205c 9ebc c68a f7bc e6ee 7d3c
000002e0: 1b3e 0c3c 269a c4bc 6035 8a3c 4699 2abc
000002f0: 90fd 24bd c0cf 51bb 4b3a d53b 5b11 e8bc
00000300: e88c d8bc 4b5a 863c cc1c 1abd 2cba 073d
00000310: 765a 66bc 4658 613c 2ba5 f6bc fe55 f0bc
00000320: 6338 ac3c 5868 fb3c 2f9b 10bd 18b0 be3c
00000330: b871 9abc 868a 1fbc 4b2b 3c3c 76e2 9bbb
00000340: 6e73 ea3c eb48 d8bb 6ed8 1a3d c887 9abc
00000350: abf8 84b9 5b59 a8bc b630 a23b b615 76bc
00000360: df94 0cbd d693 0a3b d31d 223d e60b 7f3c
00000370: eb97 02bd 5642 eb3a ab7c b8bc abce a4b9
00000380: a6c8 f8bc fb55 15bc 3c47 07bd 63f9 babc
00000390: a3c7 dcbc aa65 19bd 96e4 463c 409d 1ebc
000003a0: a0df debb 505e 843c e665 01bc 56af de3c
000003b0: 2bdf 7abb b21e 003d 4056 92bc ee95 8b3c
000003c0: d04a f43c 4210 00bd 56cf c7ba 70e0 e43c
000003d0: a002 a4bb 83cf 1b3d 42f7 04bd 2b41 d8bc
000003e0: f60a 243c b645 2a3c b391 e6bc a6f9 513c
000003f0: 4e76 dd3c 7ba3 9fbc fe30 b4bc fb44 efbc
-0.006273101 -0.034486458 -0.03373773 0.002951185 -0.04027496 0.0029746394 -0.023945373 0.03563113
-0.040753584 0.016925862 0.025397658 0.019326761 -0.027092766 0.0098314285 0.039581858 0.023877665
-0.004158452 0.040731635 0.03896469 0.040388405 -0.036323234 -0.009094268 -0.013585066 0.008335263
-0.0095857885 0.026209772 -0.015869137 -0.017663494 -0.034625374 0.041650243 -0.0181044 0.033893015
-0.010259798 -0.032534882 0.005632495 -0.032235302 -0.037862193 -0.0200807 -0.005671834 -0.021444133
0.009358605 0.021999802 -0.0048627607 -0.03293612 -0.03841087 0.03955459 0.005675306 -0.022305643
0.029211333 -0.011167447 -0.008888027 -0.024130479 -0.0347196 -0.012540574 0.023197522 -0.037919745
-0.0067450455 -0.020187661 -0.03453499 -0.025242701 -0.02056921 0.025944915 -0.0044355243 -0.0038962811
-0.023399994 -0.028959444 0.029299488 0.026383832 -0.0034685484 -0.011960532 -0.0342891 -0.03257331
0.0065053552 -0.028333252 -0.0288922 -0.0038092732 0.01724958 -0.02194582 0.034673057 -0.020400813
-0.017625656 -0.01378499 0.016782438 0.038620822 0.008597816 -0.012502259 0.014010539 0.027606016
0.008698627 0.022547057 0.033911116 -0.006670043 -0.04149604 0.019383898 0.015208608 0.009458533
-0.036745846 -0.008995111 -0.039952364 0.03798949 -0.037448745 0.033605486 -0.017913934 0.036331143
-0.036514327 0.011631846 0.028150856 0.017935326 -0.009964536 -0.0032198827 0.036305867 -0.036063768
-0.038488172 -0.02274884 -0.035444405 0.03927457 -0.016111678 -0.030013517 -0.008893475 -0.021072796
0.014419844 0.040345814 -0.03064482 0.03578081 -0.010090342 0.01105314 0.04071258 -0.0064696325
0.0067032427 0.041436434 0.029630855 -0.0010020733 0.028707355 -0.035793833 -0.018205106 -0.037545912
0.007844667 -0.018017083 -0.012650808 0.020420816 -0.025153786 -0.00048100454 0.032571208 -0.030707538
-0.010769874 0.03332094 0.029743856 0.0021122347 -0.02332021 0.002078265 0.016776558 0.024239134
0.00031790635 -0.0065608425 0.034945726 -0.014585873 0.0236427 -0.019230297 0.040827066 -0.0087537225
0.038449418 -0.001407072 0.027413115 -0.032421213 0.03588843 -0.0019465189 0.030707505 -0.025164347
0.024650192 0.0029122285 -0.03782504 -0.017052716 0.03132905 -0.0030982445 -0.04049432 0.040556468
-0.040469997 0.02531625 0.010915379 -0.011575555 -0.016026642 -0.019331038 -0.03021754 0.015498852
0.008559729 -0.023999285 0.016871154 -0.01041252 -0.04028088 -0.0032014698 0.006507193 -0.028328588
-0.026434377 0.016400477 -0.03762512 0.03313653 -0.0140596535 0.013753956 -0.030108055 -0.02933788
0.021022981 0.030689403 -0.035304245 0.023277327 -0.018853053 -0.009737616 0.011484931 -0.004757221
0.028619494 -0.0066004894 0.03780406 -0.018863574 -0.00025362274 -0.02055042 0.0049496545 -0.015019825
-0.034321662 0.0021145246 0.039579224 0.015566802 -0.03188316 0.0017948847 -0.022520384 -0.00031434497
-0.030369114 -0.009114738 -0.03302692 -0.022823995 -0.026950663 -0.03745047 0.01213946 -0.009681046
-0.0068015605 0.016158253 -0.00789783 0.027183216 -0.003827999 0.031279273 -0.017863393 0.017039265
0.02982083 -0.031265505 -0.0015244286 0.027939051 -0.0050051957 0.038039695 -0.032462366 -0.026398262
0.010012379 0.010392597 -0.028145647 0.0128158685 0.027033951 -0.019487133 -0.021996018 -0.029207697

inc.bot_conv2.bias f4 [64]
00000000: cbe4 ebbb 2bbb 23bb e72e 083d ab2f a43c
00000010: 4032 3e3b 5618 24bc 2e48 91bc cb46 813b
00000020: 2b05 ca3b f826 d1bc 1667 443c 938a a8bc
00000030: 9e86 85bc 86a9 223d b6a6 f63b 90a2 0bbd
00000040: 86a4 22bc dbb4 073c ce90 b83c ee02 bc3c
00000050: 16ba 573c 36d5 18bd 0bfd 95bb b62b 813c
00000060: f8b5 b9bc 164d 7a3c 1b3f 213d 50b6 6dbc
00000070: 103a b3bc 403a d93b 706e 043c 6bf8 63bb
00000080: 7fa1 243d 7088 803c 80cc 0dbd 47b4 103d
00000090: 17b4 09bd 6b03 71bc 40a0 603b 70ce 683c
000000a0: 409f bb3c 3b8b 9a3c eb8c c73b 00de 60bc
000000b0: 3b8e 16bd 1e81 28bd dbda 1cbd 5310 8d3c
000000c0: a2ad 293d 4b27 e53c 60f8 63bc 606d d93c
000000d0: 38ed f9bc 8b2c 87bb 7be4 e5bc 2b7d f4bb
000000e0: 26f2 ef3c d6bb 04bd 2b3c e23a e008 debb
000000f0: 8682 2d3c d65d cb3a 9799 25bd 10be c43c
-0.007198905 -0.0024983387 0.033247855 0.020042261 0.002902165 -0.010015568 -0.017734613 0.0039452068
0.006165167 -0.025531277 0.011987468 -0.02057389 -0.016299542 0.03971245 0.0075271977 -0.03409058
-0.009926921 0.008282865 0.022529986 0.022950616 0.013166925 -0.03731271 -0.004577284 0.015767913
-0.022669777 0.015277168 0.039366823 -0.014508799 -0.021878272 0.0066292584 0.008082971 -0.003478552
0.040193077 0.015690058 -0.034618855 0.035328176 -0.033619013 -0.014710288 0.0034275204 0.014209375
0.022903085 0.018865218 0.006089797 -0.013724804 -0.036756735 -0.04113876 -0.038294654 0.017219698
0.041425355 0.027972838 -0.013914198 0.026541412 -0.030508623 -0.004125183 -0.02806305 -0.0074612102
0.02929027 -0.032405697 0.0017260363 -0.0067759603 0.010590201 0.0015515636 -0.040429678 0.02401641

inc.bot_conv3.weight f4 [256, 64, 1, 1]
00000000: 46b7 dfbd 8233 dabd 2c26 36bd e852 19bd
00000010: 280a 69bd 3299 a43d 4027 9bbb 78f7 88bd
00000020: 98ba 83bc a8b0 5b3d c064 dfbc e883 bdbd
00000030: c663 b23d 8040 db3d 7868 34bd 2050 d7bb
00000040: c8d0 353d c022 c23d 6056 09bc 6212 883d
00000050: a06d 94bb 605f 45bd 9c92 393d 1a1a a13d
00000060: 608e f83b ccf4 463d d866 5b3d 3840 e73c
00000070: be65 903d 8ef7 ec3d fcf5 2bbd 0c1e 7bbd
00000080: 943e 87bd e01e ae3b cca8 babd 46b7 df3d
00000090: 90ae d6bc a495 60bd b013 ce3d 60bb d43c
000000a0: b033 1c3d 38e5 abbc 90c9 dcbc a032 ee3c
000000b0: be9c a8bd a0c7 433d 9a19 97bd e65e a23d
000000c0: b066 94bd 80e1 393d 7c09 17bd 32b3 eebd
000000d0: 1c9e 57bd a084 673d 40b2 1b3c e4b5 843d
000000e0: 0097 963b a098 2a3d fe3b 893d 94de 22bd
000000f0: ecb3 b33d 6c2e f6bd f611 893d a456 9e3d
00000100: b4ff b73d a032 44bc e047 64bc 38f7 2bbd
00000110: 0098 eeb8 22ab a53d 2004 6a3d d80e 213d
00000120: d89c 8bbd 4634 f9bd 0891 fcbd 7e77 913d
00000130: 24d9 11bd 8061 0dbb 1a23 f9bd a03e 80bc
00000140: 2afa e33d 60eb 853b 367a d4bd 820c c1bd
00000150: b068 8d3d e092 a2bc 9081 8abc dcca ccbd
00000160: 0098 49bb c03a 57bb b003 75bd 50ab 5bbc
00000170: 9001 583d 86fa aebd 680e a1bd 9cb5 183d
00000180: 3ae2 ffbd 8882 1e3d 00c4 d139 0ce3 bf3d
00000190: 4896 ec3d 1484 4d3d d031 51bc 3e06 b33d
000001a0: 1c81 38bd cc84 7dbd 7c70 cf3d 68fd db3c
000001b0: 1caf bfbd 64c5 cfbd 4817 9f3c d633 fe3d
000001c0: 18b1 65bd d0b0 303c 709f 9c3c 9e5a bdbd
000001d0: 3005 60bd 9cbc a5bd dc92 77bd 4cfd 2abd
000001e0: fcff 9fbd 5411 58bd e402 503d 10de 313c
000001f0: f016 8ebd 7a9a c53d c005 62bc bc11 c73d
00000200: 6a5f ecbd 8e6b b33d 1815 59bd 4ceb 58bd
00000210: 20a6 a13c a2d1 aebd 90d5 923c 189a d93c
00000220: 0063 52bd 6a79 ffbd 96a2 dcbd 8a92 b33d
00000230: a4a4 413d 4e7f c03d 649e 87bd f6d1 a2bd
00000240: 2c05 9c3d 009e b7bb 8a5a ad3d 8610 a1bd
00000250: c012 98bd fa66 a53d 2e1d 94bd 4c5e 47bd
00000260: 5099 f9bd a600 dbbd 72b9 f83d 5063 02bd
00000270: e852 f6bc 6eb9 883d 7cbf 6a3d 08bd ffbd
00000280: d891 a03c 6467 393d c056 173b 4ea6 943d
00000290: 3abb b33d 0446 233d 08e1 5abd d8ee a33d
000002a0: 6013 ae3d d042 cf3c 2035 c7bb 720a f4bd
000002b0: d649 dbbd ce48 d53d e0bc c2bd 8079 40bb
000002c0: e06f 023c 1a25 b43d 9810 65bd 66c3 a1bd
000002d0: b001 383d e4d3 3dbd 2ac9 e73d 94c9 1cbd
000002e0: 249a c93d f4de ba3d 1604 e0bd 607b edbc
000002f0: f067 973c ee31 babd 04cb 4b3d 943f 823d
00000300: b295 d93d fc75 63bd 189e df3d 5afa e13d
00000310: 582b 5ebd b8c9 bbbd 0ce2 233d 0c1a 573d
00000320: aa66 fe3d e0fa 993b 10cd 06bd 065d ab3d
00000330: 0001 923c 84d3 603d 686d 81bd 6862 783d
00000340: 66aa 93bd aa37 c63d b4c4 d23d 40b6 c4bb
00000350: 068b 8e3d c835 343d b001 29bd 788e af3c
00000360: f482 b63d e6e4 f43d b64a f7bd 141a 043d
00000370: 80b9 2f3d 302f 633d 34e9 2f3d a042 18bd
00000380: 008e 6abb 0028 b73c 9063 513d 3c47 afbd
00000390: 70ae fbbd 78ec 58bd bc88 6f3d e82c 563d
000003a0: 82a7 aabd 1041 313d 7ee9 9e3d 96e4 ed3d
000003b0: 90fe b83d e8e1 dd3d 4878 b03c f210 e23d
000003c0: 6419 cfbd 342e a53d f2f8 ccbd a69a b83d
000003d0: 3cb2 b63d e421 6f3d 90db 0c3c 4a71 a63d
000003e0: c4fa a1bd 24db 3ebd 4a0f f7bd 3054 eebc
000003f0: 86ba ebbd e617 d93d d4f7 2abd d4fd 2c3d
-0.109236285 -0.106543556 -0.044469997 -0.03743258 -0.05689445 0.08037032 -0.0047349036 -0.06687826
-0.016080186 0.05363527 -0.027269721 -0.09253675 0.087104365 0.10705662 -0.04404494 -0.006570831
0.044388562 0.09479284 -0.00838241 0.06644131 -0.00452967 -0.04818666 0.045305833 0.078663066
0.007585332 0.0485733 0.053564876 0.028228864 0.07050656 0.11570655 -0.041982636 -0.06130795
-0.06603733 0.005313739 -0.09114227 0.109236285 -0.026206285 -0.05483021 0.10062349 0.025968254
0.03813523 -0.020983323 -0.026951581 0.029076874 -0.08233021 0.0477978 -0.0737793 0.07928257
-0.072461486 0.04538107 -0.03687428 -0.116552725 -0.05264102 0.056522965 0.009502947 0.064800054
0.0045956373 0.04164946 0.06700896 -0.03976305 0.08774552 -0.12020573 0.06692879 0.07731369
0.089843184 -0.011974961 -0.013933152 -0.041983813 -0.000113770366 0.080892816 0.05713284 0.039320797
-0.06817025 -0.121681735 -0.1233235 0.071028695 -0.035607472 -0.0021573007 -0.12164898 -0.015654862
0.111316994 0.004086897 -0.103748724 -0.09426214 0.06904733 -0.019845426 -0.016907483 -0.0999963
-0.0030760765 -0.0032841414 -0.05981797 -0.013407543 0.052735865 -0.08543877 -0.07864076 0.03728257
-0.12494321 0.038698703 0.00040009618 0.09369478 0.115521014 0.050174788 -0.012768224 0.08741425
-0.045045003 -0.061894223 0.101288766 0.026854232 -0.09359571 -0.10145071 0.019420281 0.12412231
-0.056077093 0.010784343 0.019118994 -0.092457995 -0.054692447 -0.08092615 -0.06044279 -0.04174547
-0.07812497 -0.0527509 0.050784007 0.0108561665 -0.06937969 0.09648605 -0.013795316 0.097201794
-0.11541636 0.08760749 -0.052998632 -0.05295877 0.019732535 -0.08536078 0.0179241 0.026562735
-0.051363945 -0.1247433 -0.10773198 0.087681845 0.047276154 0.093992814 -0.066220075 -0.07950203
0.07618174 -0.005603552 0.084645346 -0.0786448 -0.07425451 0.08076282 -0.07232128 -0.048673913
-0.12187445 -0.10693483 0.12144746 -0.031832993 -0.03006883 0.06675993 0.05731152 -0.12487227
0.019600794 0.045264617 0.0023092479 0.072582826 0.08775945 0.039861694 -0.053437263 0.0800454
0.08499789 0.025300413 -0.006079331 -0.11916055 -0.107074425 0.10414277 -0.09508681 -0.0029369295
0.007961243 0.08796139 -0.05592403 -0.078985974 0.044923484 -0.046344653 0.11317666 -0.038278177
0.09843853 0.09124556 -0.10938279 -0.028989494 0.018482178 -0.090915546 0.049754158 0.06359783
0.10624255 -0.05553244 0.10918826 0.11034079 -0.054240555 -0.09169334 0.040010497 0.052515075
0.12421925 0.004699096 -0.032910407 0.08367352 0.017822742 0.054889217 -0.06319696 0.060640723
-0.07210235 0.09678586 0.102914244 -0.006003171 0.0696011 0.043996602 -0.041261375 0.02143024
0.08911696 0.119577214 -0.12074797 0.032251433 0.042901516 0.055464923 0.04294701 -0.037172914
-0.0035790205 0.02235794 0.05112034 -0.08558509 -0.12289131 -0.05295989 0.05848001 0.05228892
-0.08332731 0.04327494 0.07759379 0.11615865 0.09032929 0.10834104 0.02154173 0.11038388
-0.10112265 0.08065453 -0.1000842 0.09013872 0.08920714 0.05838193 0.00859727 0.08127077
-0.07909158 -0.046595708 -0.12063463 -0.029092878 -0.11510186 0.106002614 -0.041740254 0.042234257

inc.bot_conv3.bias f4 [256]
00000000: c07d 153d b069 1cbc 6481 d9bd c8e0 c53d
00000010: a457 023d 7063 4fbd 2063 8abc 70b3 c93d
00000020: 56b7 de3d eee2 c9bd a472 07bd a8d7 fc3d
00000030: fcb6 49bd 3270 bcbd 180c b1bc 083c 50bd
00000040: 80a9 bf3a 6ccb 763d 58d1 543d 20c3 3bbc
00000050: be41 d6bd 3e61 ed3d 7e71 d0bd 989f c03c
00000060: 6053 c7bc 30c6 4f3c 0c6f bd3d f87c a63d
00000070: 3a04 f4bd 621e f6bd 1421 2e3d 3419 8bbd
00000080: 182f b6bc e0d9 1abc 9e98 f8bd 2815 a9bc
00000090: c862 f03c 3cdc 5abd 0054 dbbd 109d a83c
000000a0: 0c8d abbd a0f7 dabd bc31 593d 4283 fb3d
000000b0: 80c7 9a3c f090 84bc f001 513d 4c31 b73d
000000c0: b8df 80bc 080f cabc a835 223d 74cf 8a3d
000000d0: fafa ecbd 5c39 89bd 964f babd 7cd5 efbd
000000e0: a80f 1e3d a8f2 81bc 00d6 1fba f0fd 92bd
000000f0: f868 e5bd 40c8 8dbb 80c7 47bc 90d7 583d
00000100: 3a58 9b3d 0a37 aebd 60cd a73b 02aa 86bd
00000110: 54f4 6ebd c0a4 d3bb beb5 c83d 7a8b 87bd
00000120: ce9b f33d b07f 3c3c 3282 c4bd 385c 47bd
00000130: 38e3 d73d f035 bebd bcc1 90bd 305e 943d
00000140: b001 2e3c 80c8 cc3d a008 59bc ec99 5cbd
00000150: 50ca 5ebc 9447 e5bd 5454 3e3d 3094 c4bd
00000160: 1042 d1bd 14ea fbbd 689b adbd 6c73 b33d
00000170: 9637 b63d d01a f63c 88cd cdbd 2055 4a3c
00000180: c0f2 8b3d 0c1b 5cbd 4853 b6bc 4274 ee3d
00000190: f886 ccbd bc13 6e3d c0c2 56bd a0af 6b3d
000001a0: b035 623d 84b2 11bd 4086 643d 5c57 e93d
000001b0: dcd1 213d a854 ec3d e2a7 dabd d291 ea3d
000001c0: 2c41 003d a4eb 653d 8872 ffbc 2c93 a3bd
000001d0: d06e 3c3c 9e6c f23d 402a 20bc fcf3 273d
000001e0: 30db 61bc 3404 923d f892 ec3c 7e39 9c3d
000001f0: 584f fd3d 2099 883d 5c73 04bd 764e e6bd
00000200: 00de 333d 4008 20bd 601d f0bb 1ad3 a0bd
00000210: 4cfe 9b3d 9070 803c e2ca fcbd 6c43 cebd
00000220: 3c6b 23bd b88c 923d 4aec e5bd 121a 94bd
00000230: e26c ed3d a005 7ebd 2058 49bd 0047 b9bc
00000240: fc4f 4dbd e80f f1bc 4e1a 8ebd 4056 103b
00000250: 0016 dfb9 a648 873d 30ee d13d bca9 663d
00000260: 900b e4bc 641e adbd 207c 693d ecdb 033d
00000270: 9e6d a23d faa3 ed3d a6bc f2bd 2057 bfbc
00000280: dc8a c73d 401c 6dbc 1296 b7bd 4c0d 26bd
00000290: 1847 9f3c 0432 4bbd 341a 813d 68b9 433d
000002a0: 009d 303a 90e2 d23d 284f 683d d0f2 723c
000002b0: 2c98 593d 3cf6 5b3d bcec 99bd 34d0 313d
000002c0: 8ce4 e93d ae8f ac3d e055 e9bc 3edb fb3d
000002d0: 0021 033d f834 b23d e035 d4bb 1020 d53c
000002e0: 604e a73d a0a1 6f3d 8480 19bd 48a7 72bd
000002f0: 7a10 bcbd 32ad 9bbd c0fd 173b 7028 ce3c
00000300: c8a6 fbbc 74c9 783d 166f babd 6ca7 283d
00000310: f217 c13d e620 91bd 6a1b b13d e8e5 c93d
00000320: 8859 8d3c 90b7 5abd a836 abbc 5869 c53c
00000330: 0adb ad3d 1032 78bc fcfc 913d ac21 16bd
00000340: 0881 cb3c 0e3b 943d 1049 74bc ba3d a43d
00000350: 8449 66bd a046 9a3b 7c9a 053d c036 db3c
00000360: d053 d2bc 5c7a 23bd a0ba e13d 2c1a cd3d
00000370: 686f 1ebd 9075 1e3d fa96 8abd c04e adbd
00000380: 8063 e4bb f2ec c0bd b015 143c 7cb4 5e3d
00000390: c873 dfbd 1cd0 57bd e029 da3b 5479 96bd
000003a0: 6840 55bd a84b a1bc a660 f0bd a0ab 653d
000003b0: cc2a 023d 8239 c93d 6888 6ebd 4c28 d9bd
000003c0: 2038 b7bd 9011 5cbc d0f4 ebbd 80d3 11bd
000003d0: 7829 35bd 4009 33bd 9447 0f3d 30ba b4bd
000003e0: baff 9f3d 10fc 33bd b065 22bc 50a5 09bc
000003f0: d017 903c 8e1a 9dbd d041 eb3c c8d6 0d3d
0.036496878 -0.009546682 -0.106203824 0.09662014 0.031821862 -0.05063194 -0.01689297 0.09848678
0.10874812 -0.098577365 -0.033068314 0.12345821 -0.049246773 -0.09201087 -0.021612212 -0.0508385
0.0014622658 0.060252592 0.05195746 -0.011460096 -0.10461758 0.11590813 -0.10177897 0.0235136
-0.024331748 0.012681529 0.09249696 0.08129305 -0.11914869 -0.12017514 0.042512015 -0.067919165
-0.022239253 -0.0094513595 -0.121384844 -0.02063997 0.029343978 -0.053432688 -0.10709381 0.020582706
-0.08376512 -0.10691762 0.053025946 0.12280895 0.018893957 -0.016182393 0.05102724 0.089449495
-0.015731677 -0.02466537 0.03960195 0.0677785 -0.115713075 -0.067003936 -0.09097211 -0.11710641
0.03858915 -0.015862778 -0.0006097257 -0.07177341 -0.11201662 -0.00432685 -0.012193561 0.05293995
0.07585187 -0.085065916 0.005120918 -0.06575395 -0.05833848 -0.0064588487 0.098002896 -0.066184
0.11894952 0.011505052 -0.09595145 -0.04867193 0.105413854 -0.092876315 -0.07068202 0.07244527
0.0106205195 0.0999918 -0.013246685 -0.05385773 -0.01359804 -0.11195293 0.04646714 -0.09598577
-0.102176785 -0.12300506 -0.08476907 0.08762249 0.08897321 0.030042082 -0.100489676 0.012349397
0.0683341 -0.05373673 -0.022256508 0.11643268 -0.09986681 0.05812429 -0.05243182 0.057540536
0.05522698 -0.035570636 0.055792093 0.113936156 0.039506778 0.115395844 -0.10676552 0.11453594
0.031312153 0.056132928 -0.031182542 -0.07987055 0.011501029 0.11837123 -0.009775698 0.041004166
-0.0137851685 0.07129708 0.028878674 0.07628153 0.12368649 0.06669831 -0.032336578 -0.11245434
0.043912888 -0.039070368 -0.0073277205 -0.078527644 0.07616863 0.015678674 -0.12343384 -0.100714535
-0.03989719 0.07155746 -0.11226709 -0.07231535 0.115930334 -0.062017083 -0.04915631 -0.022616863
-0.050125107 -0.02942653 -0.06938611 0.0022024065 -0.00042550266 0.066056535 0.10250509 0.056314215
-0.027837545 -0.08453062 0.05700314 0.032192156 0.07931064 0.11603542 -0.11852388 -0.023356974
0.09743282 -0.014472067 -0.089641705 -0.040540025 0.01944308 -0.049608245 0.06303826 0.04778424
0.0006737262 0.102971196 0.056716114 0.014828399 0.053123638 0.053701624 -0.075158566 0.04341145
0.11420545 0.08425842 -0.028483331 0.122976765 0.032013893 0.08701509 -0.006476149 0.026016265
0.08169246 0.058503747 -0.037476078 -0.059241563 -0.0918283 -0.07601394 0.0023192018 0.025165766
-0.030719176 0.060738996 -0.09103219 0.04117529 0.09428395 -0.07086353 0.08647807 0.09858304
0.017254606 -0.053397715 -0.020900086 0.024098083 0.08489044 -0.015148655 0.07128331 -0.036653206
0.0248418 0.07237826 -0.014909998 0.08019586 -0.056222454 0.004708126 0.03261803 0.026759505
-0.02567473 -0.039911613 0.11021924 0.100147575 -0.038680464 0.038686335 -0.06767078 -0.08462286
-0.006969869 -0.09420194 0.009038374 0.054371342 -0.109107554 -0.052688703 0.006657824 -0.0734736
-0.052063376 -0.019689396 -0.11737184 0.056071877 0.031779096 0.09825422 -0.058235556 -0.10603389
-0.08946252 -0.013431922 -0.11521304 -0.035602093 -0.044229 -0.043709993 0.03498037 -0.08824575
0.07812448 -0.043941557 -0.0099119395 -0.00840123 0.01758948 -0.076710805 0.028717905 0.03462866
